Exs/Ex1/cifar_net.pth (torch, 251167 bytes, 10 tensors)

conv1.weight f4 [6, 3, 5, 5]
000000 35 37 94 3e 61 39 3c ba b6 48 52 3e 1e 77 74 3e
       0.2894837 -0.0007180181 0.2053555 0.23873565
000010 16 b7 9c 3e 20 e1 82 bd 8b d5 58 be 28 4c 6f be
       0.30608433 -0.063905954 -0.2117521 -0.23368895
000020 e3 dc 1f be e2 12 ba b9 cf 8e 8e be a8 fb 1e bf
       -0.15611605 -0.00035490753 -0.2784333 -0.62102747
000030 2f 49 ae be ac 1c 80 be f1 c8 08 be 88 b1 ab be
       -0.3404021 -0.25021875 -0.13357903 -0.33533883
000040 2a 6d e6 be f7 93 eb be 12 8f 88 be ae da f8 bd
       -0.4500516 -0.46011326 -0.26671654 -0.12151085
000050 2a 81 b2 bd 23 4e 26 be 24 ca 24 be af a7 27 be
       -0.08716042 -0.16240744 -0.16092736 -0.1637256
000060 be f0 9a bd 34 fa 83 be 5f 4f db bd 60 50 74 3c
       -0.07565449 -0.25776827 -0.10708498 0.014911741
000070 29 d2 9d 3d 31 23 61 bd ef 2e 34 bd a7 11 fc 3c
       0.077061005 -0.0549652 -0.043990072 0.030770136
000080 2e fc c5 3d e9 dd 28 bd 8d df 30 bd 35 d8 93 3d
       0.0966724 -0.041227255 -0.043181945 0.072189726
000090 73 34 0c 3e 74 1d 27 3e d5 70 4a 3d 6f 5c 1f bc
       0.13691883 0.16319829 0.04942401 -0.009726628
0000a0 55 62 f6 bc 7d 4d df 3d c0 2b 40 3e fe 16 b0 3b
       -0.030076185 0.109034516 0.1876669 0.0053738346
0000b0 dd 64 94 3d 21 e9 b9 be 10 5e a2 3d b9 10 09 3e
       0.07245801 -0.36310676 0.07928097 0.13385285
0000c0 20 e3 e3 bc 0f 83 98 bd 24 2c 53 be 37 d7 68 3d
       -0.027818263 -0.074468724 -0.20622307 0.05684587
0000d0 16 b7 eb 3d 13 9d 05 be 2d 45 e9 be 4b 0a 4f 3e
       0.1150953 -0.130482 -0.4556059 0.2021877
0000e0 ec 8c 19 3f 52 c6 f6 3e ce 63 31 3e 0e e1 aa be
       0.59980655 0.4819818 0.17323229 -0.33374828
0000f0 ec f3 c9 3e c9 9d 2d 3f a1 83 22 3f 1d 17 81 3e
       0.3944391 0.67818886 0.634821 0.25212947
000100 e1 53 e7 39 ec 29 c4 3e be cc 33 3f 99 14 f6 3e
       0.00044122248 0.38313234 0.70234287 0.4806259
000110 c6 a9 b7 3e a4 2a 0e be b1 82 63 bd 7a 6a e6 3e
       0.35871714 -0.13883454 -0.05554456 0.4500311
000120 60 a2 a5 3e de df 93 bd 09 4d b4 be 5d 40 8f 3d
       0.32350445 -0.07220434 -0.35215023 0.06994698
000130 71 e8 fe be e4 ec a5 3e 4c 87 15 3d c5 37 15 3d
       -0.49786714 0.32407296 0.036505982 0.03643014
000140 61 de 03 bf ef bf 06 bf 51 81 9d 3f 83 78 4e be
       -0.515112 -0.5263662 1.2305089 -0.20163159
000150 fd ca be be 41 4e 3c be 72 a0 be 3e ee ae a6 3f
       -0.37264243 -0.18389226 0.37231785 1.3022134
000160 73 d9 94 bf 3b ef 78 be d0 15 80 3e 8c 9c 61 3e
       -1.162886 -0.24310009 0.25016642 0.22032374
000170 46 0d f9 be 46 12 c3 bf 56 df 35 3f ac e3 56 3d
       -0.4864294 -1.5239952 0.7104391 0.05246322
000180 d8 5c 53 be 18 81 06 be 47 11 5c be e8 1c 30 3f
       -0.20640886 -0.13135183 -0.21490966 0.6879411
000190 65 4b f3 3e de f2 f5 bc 92 ac 19 3e 32 24 43 be
       0.4751846 -0.030023035 0.15007237 -0.19056776
0001a0 56 22 01 3e 9b ad 83 bd dc a4 9b be 4b 3c 9c 3f
       0.12610754 -0.06429597 -0.30399215 1.22059
0001b0 4e 58 86 bd 9f 5c a8 be 88 e0 40 3e 38 9d 53 3f
       -0.065598115 -0.32883164 0.18835652 0.8266177
0001c0 87 14 9d 3f 4c 1b 8a bf 5f a6 9e be f4 7d 4b 3f
       1.227189 -1.078958 -0.30986306 0.79489064
0001d0 2a f9 07 3f be a5 be be 70 a8 bc bf f3 20 34 3f
       0.5311457 -0.37235826 -1.4738903 0.70362777
0001e0 a8 7f da 3d ac 06 da bd 92 6f ca bd 3d e9 9d be
       0.1066888 -0.10645804 -0.098845616 -0.3084201
0001f0 d9 38 87 3e ef 0f fe bd f1 81 e3 be cf b9 fa 3d
       0.2641056 -0.12405383 -0.44435075 0.122424714
000200 45 06 1f be b0 1d 85 bd 30 41 f7 be f8 c1 27 bf
       -0.15529735 -0.06499803 -0.48291922 -0.6553035
000210 09 3a 6e 3f 81 b8 ba bc 2a eb dd bd 04 fb 93 be
       0.93057305 -0.022793056 -0.108358696 -0.28902447
000220 c3 6f 9f 3e d0 f3 77 3f f5 e3 2a bf 6e 6d ce 3d
       0.31139955 0.96856403 -0.66754085 0.10079466
000230 45 af eb 3d ec d2 15 3e 56 2f 81 be 7a 0a 88 bf
       0.115080394 0.14631242 -0.25231427 -1.0628197
000240 88 7a 82 3f 09 7a b5 be aa 44 d9 be de 0e 18 3d
       1.0193644 -0.35444668 -0.424352 0.037123553
000250 83 41 7c 3e 27 22 12 3f b5 50 1d be 92 db 1e bf
       0.24634366 0.5708336 -0.15362819 -0.6205379
000260 e9 3a 3b bf cc 13 f2 be 30 70 95 bd d8 d7 c8 be
       -0.73136765 -0.4728073 -0.07296789 -0.39227176
000270 66 f6 0f bf b4 64 17 bf 15 3a 4e be 26 50 04 3d
       -0.5623535 -0.59138036 -0.20139344 0.032302998
000280 dc 71 8b 3e 11 c6 20 3f 65 4a 48 3f ea d5 02 3f
       0.27235305 0.62802225 0.7823852 0.51107657
000290 d9 4b e9 3d 03 39 e1 3e ac db 9f 3e e4 ab e1 3e
       0.1139142 0.4398881 0.31222284 0.44076455
0002a0 c7 25 af 3e 93 f4 0b 3e 37 ea 6d 3e 5b 1d 14 3d
       0.3420851 0.13667516 0.23233877 0.036160808
0002b0 06 f8 03 bb 75 e0 21 3e 23 ed 59 3e 04 81 1c 3e
       -0.0020136847 0.1580828 0.21281867 0.1528359
0002c0 a1 43 27 bd 7d c7 89 be 02 91 25 be 45 fe 7c 3d
       -0.04083598 -0.2691001 -0.16168597 0.061765928
0002d0 5a 0c 5a be 68 70 d1 be 4a a7 70 be 20 9e 5d be
       -0.21293774 -0.40906072 -0.23501316 -0.21642351
0002e0 69 93 04 be 24 14 37 3e 10 26 04 3f 41 be f9 3e
       -0.12946858 0.17878777 0.5162058 0.48777965
0002f0 27 2a 63 3e a2 9c 8f be fa 2a 8c 3d 5b 8d 8f 3e
       0.22184049 -0.2804919 0.06844135 0.28037533
000300 69 03 89 3e 08 5e a7 bd 1b 8a d6 be 67 16 09 bd
       0.26760414 -0.08172232 -0.4190224 -0.03346863
000310 68 4d f8 bd 34 5c 92 be 33 2a 03 be 71 8f b2 bd
       -0.12124139 -0.2858597 -0.12809066 -0.087187655
000320 f5 bb a9 3d 59 7a ce bd e8 28 4f be 76 f8 7d 3e
       0.08287803 -0.1008193 -0.20230448 0.24801812
000330 c3 77 a8 3e 60 a4 b2 be f4 32 f1 be 23 88 88 be
       0.3290387 -0.34891033 -0.47109187 -0.26666364
000340 17 33 24 3d 91 c7 37 3e 78 53 b3 3d 7e 8c 8c 3e
       0.040087786 0.17947222 0.08756155 0.27450937
000350 7a 89 ea 3e 70 a1 84 3e 51 69 cc bd b7 2e e2 3d
       0.4580801 0.25904417 -0.09981025 0.110440664
000360 36 1d 77 3e cf c9 1e 3d e2 37 6a bc 69 df 3a bd
       0.24132237 0.03876668 -0.01429555 -0.045623217
000370 7e ec 96 bd 0e 88 03 be 97 89 3a be 2f 62 c9 bd
       -0.07369326 -0.1284487 -0.18216549 -0.0983318
000380 f2 89 60 3e 8e 09 a4 3e 50 e1 c8 3e 90 17 5e 3e
       0.21927622 0.3203854 0.392344 0.21688676
000390 1d 50 d2 bd 0d 1f 43 3d 35 c3 0a 3e ef 5d 11 3f
       -0.10269187 0.047637034 0.13551028 0.56783956
0003a0 c1 52 a3 3f 37 ef 63 3f 3f ad 11 3f 98 c0 bd be
       1.275963 0.8903689 0.5690498 -0.37061
0003b0 a6 de 4e bf 26 5d 80 bf d1 b9 b4 be a1 3d 90 be
       -0.80808485 -1.0028427 -0.35298017 -0.2817202
0003c0 a4 df 0c bd 76 10 f2 bd 1b ee 9e be 9c 21 ad be
       -0.034392968 -0.11819546 -0.31041035 -0.33814704
0003d0 7c cd 93 3d 34 9b b8 be 56 d4 7f be db d1 29 bc
       0.072169274 -0.3605591 -0.24983343 -0.010364975
0003e0 6c 7f 8b be 10 18 e6 be 7c 17 ec bc 4c df cd 3d
       -0.27245653 -0.44940233 -0.028819792 0.10052356
0003f0 1d dc dd 3c 30 45 a8 be 75 08 72 be bd 8c c0 bd
       0.027082497 -0.32865286 -0.23636039 -0.09401844

conv1.bias f4 [6]
000000 40 80 9b 3e fd 43 bd be c4 85 21 bf 6f cc 17 bf
       0.30371284 -0.36965933 -0.63094735 -0.59296316
000010 eb 18 0e bf 0d 8b f2 be
       -0.5550677 -0.47371712

conv2.weight f4 [16, 6, 5, 5]
000000 f4 5c 85 3e d2 51 84 3d c8 c4 50 3e c9 e2 0f 3e
       0.2604748 0.064609185 0.20387566 0.14051355
000010 13 02 aa be 80 48 ac 3e 6b 2a 6b 3e 11 0c 09 3e
       -0.33204708 0.33649063 0.229654 0.13383509
000020 df a5 dc bd 58 62 c8 be 63 0d f5 3e b1 93 30 3e
       -0.10773825 -0.3913753 0.47861776 0.1724384
000030 7c b0 ac 3d 24 7b c9 be 88 8d 04 bf a7 6e b6 3e
       0.08432099 -0.3935176 -0.5177846 0.35631296
000040 84 87 96 3d 4d 05 9a bd d4 da af be 56 20 96 be
       0.07350066 -0.07520542 -0.3434664 -0.29321545
000050 48 92 ea 3e e8 8d a5 3d 22 c0 c1 bd 89 73 6c 3c
       0.4581473 0.08083707 -0.094604746 0.014431843
000060 28 26 10 3e c1 ce 60 be f7 3b 2d 3e 32 e5 16 3e
       0.14077055 -0.2195387 0.16917406 0.14735869
000070 c5 cb 8b 3e dc 05 35 3f 86 9b 92 bd e7 38 47 be
       0.273039 0.70712066 -0.0715857 -0.194553
000080 1b dc 22 3d bb 93 d7 3e 59 bd d3 3d 61 ca f3 bd
       0.03976069 0.42104897 0.103388496 -0.11903835
000090 73 e4 99 3b bb 6a d0 bd 7e b6 8e be f1 0a 3c be
       0.0046964227 -0.10176607 -0.27873605 -0.18363549
0000a0 62 2e 89 3d 6c 5e 7c bd 31 ec dd be 46 60 e5 be
       0.066983 -0.061613485 -0.43344262 -0.44800013
0000b0 b5 cb 43 be a8 58 a2 be b8 aa df be 51 ab 04 bf
       -0.19120677 -0.31708264 -0.43684936 -0.5182391
0000c0 04 53 12 bf a9 3b a2 be fc 3b 25 be c4 d9 c8 bd
       -0.5715792 -0.31686142 -0.16136163 -0.098071605
0000d0 53 6d ee bd 4a bc 80 bd 27 b0 ee bd 17 8b 2f bd
       -0.11641946 -0.06285913 -0.11654692 -0.042857256
0000e0 1e ab 97 3d 43 8a 1a 3e 74 35 d2 bd 53 e0 35 be
       0.07405685 0.15091805 -0.102641016 -0.17761354
0000f0 be 67 f0 3d ce 17 11 be 15 ba 07 3e 0a 69 a0 3e
       0.11738537 -0.14169237 0.13254578 0.31330138
000100 3b b0 60 bb 0a dd 99 be 0b 93 77 bc 79 73 d4 3d
       -0.003428473 -0.30051452 -0.015110741 0.10373587
000110 d9 de 9d 3e 1d 4b 0c be f1 7d eb 3e e3 7c 4c 3e
       0.30834082 -0.13700528 0.45994523 0.19969516
000120 7a d4 3a 3e 41 18 8f 3d 5c 83 a8 be c6 dc a0 3d
       0.18245116 0.06987048 -0.3291272 0.07854609
000130 30 83 1b bd a8 94 8e 3c 88 f2 c5 bd 14 16 16 be
       -0.037966907 0.01740487 -0.096654 -0.1465686
000140 10 0f 22 be 7c 5b fa bd 35 25 06 be f2 bf 2d 3e
       -0.15826058 -0.122244805 -0.13100131 0.16967753
000150 13 96 43 bd 05 50 8c bd 74 18 9f 3e 77 ea 92 3e
       -0.047750544 -0.068512 0.31073344 0.28694507
000160 e3 e9 22 3e f3 01 9e be db a0 43 ba e6 b6 85 bd
       0.15909533 -0.30860862 -0.0007462629 -0.06529026
000170 61 77 67 3b 00 e9 3e bc af 7d 57 be 0e df 34 be
       0.0035318958 -0.011652231 -0.21044038 -0.17663214
000180 69 0d 0b be 50 9b 2d be da 8a a1 bc 1e 87 6a be
       -0.13579334 -0.16953778 -0.01971953 -0.22903106
000190 60 d4 d3 3e 2e bc b4 3e 12 bf 5c 3e b2 99 b1 3d
       0.41372967 0.3529982 0.21557263 0.08671893
0001a0 89 a7 99 3e 54 83 32 3e 83 4e 16 3e ab 26 35 bd
       0.30010632 0.1743291 0.14678387 -0.04422633
0001b0 46 d4 56 be b8 1e 9c bd bb 52 88 3e 70 b6 a6 3d
       -0.20979413 -0.07623047 0.26625618 0.08140266
0001c0 cc 97 f9 bd a1 2b b2 bd 45 ff 04 bd e6 a9 4e be
       -0.12187156 -0.08699728 -0.032470006 -0.20181999
0001d0 81 64 5b be 28 db 93 be b1 4e ad be e0 3d 98 be
       -0.21425058 -0.2887814 -0.338491 -0.29734707
0001e0 3f b1 da be 21 ce ee be 51 e0 aa be b6 6d b2 be
       -0.42713353 -0.4664164 -0.33374265 -0.34849328
0001f0 95 ac b8 be 67 37 da 3e f5 db 6c bd 5f a2 67 be
       -0.3606917 0.42620394 -0.057826955 -0.22620533
000200 40 74 0c be 25 b7 a1 3d 39 a4 26 3e 09 99 d9 bd
       -0.13716221 0.0789626 0.16273583 -0.10624892
000210 8f 69 c9 bd 3d 30 97 3e 7d f9 58 3e a8 2e c5 3d
       -0.09834587 0.2952899 0.21188922 0.096280396
000220 00 ca cd 3c 4d 2d 49 3d f7 92 0a 3e d2 d3 55 3e
       0.025120735 0.049115468 0.13532625 0.20881584
000230 36 57 93 3e 8a 9f 54 3e 01 d2 6a 3d a1 10 54 3e
       0.28777474 0.20763984 0.05732918 0.20709468
000240 e5 22 70 3e 14 cd 56 3d 18 b2 ee 3c b1 14 48 3c
       0.23450811 0.05244167 0.029137656 0.0122119645
000250 66 3b 46 be 7f 10 0c bd ab 92 ac be 07 16 7b be
       -0.19358596 -0.03419542 -0.3370565 -0.24520122
000260 5f 28 43 be e3 c7 66 bd 0a b1 c8 3e c4 15 e6 be
       -0.19058369 -0.05634297 0.3919757 -0.4493848
000270 57 90 ad be 87 95 8c be d5 b7 25 3e 72 b7 30 3f
       -0.33899185 -0.2745783 0.16183408 0.69029915
000280 02 39 9d be 77 9b d7 be e4 11 48 be 64 56 2c 3e
       -0.30707556 -0.42110798 -0.19538075 0.1682983
000290 3d fb 0c 3f e0 17 ef be e1 c5 da be 47 a8 7c 3c
       0.5507086 -0.46697903 -0.42729095 0.01542098
0002a0 51 7f 19 3e 4e 5d c5 3e 1a 2e b4 be 55 e7 3b be
       0.14989974 0.38547748 -0.35191423 -0.18349965
0002b0 9f 45 e9 3d d4 f6 58 3e 6b 22 9e 3e 34 de e3 3d
       0.11390232 0.21187907 0.30885634 0.11126366
0002c0 8a d7 71 3d ad f1 91 bc 3a 6f 87 bd a2 d5 ad bd
       0.059043445 -0.017815435 -0.06613012 -0.08488013
0002d0 de 0f 08 bc c5 68 30 bd 94 7e d6 bd ef f5 f3 3d
       -0.008304564 -0.043068666 -0.104733616 0.119121425
0002e0 e2 23 9b bc c7 83 c8 bd e1 2e d9 bd bf 52 06 3e
       -0.018938009 -0.097907595 -0.106046446 0.13117503
0002f0 12 59 c9 bc d4 e8 3a be b4 61 49 be 32 a6 21 bc
       -0.024578605 -0.1825288 -0.19666177 -0.009866284
000300 83 74 0c 3e e7 68 14 be 16 78 ea bd 75 d3 b7 3b
       0.1371632 -0.14493142 -0.11448686 0.0056099244
000310 71 61 e5 3d 1a b4 61 3b fa 4a c1 bb cc 88 a4 be
       0.11200226 0.0034439624 -0.0058988305 -0.32135618
000320 77 6e 1a 3d 41 64 fa bd 13 ce 40 bd d5 11 0b bc
       0.037703004 -0.12226153 -0.047071528 -0.008488138
000330 7b 39 fa 3d 61 d0 eb 3c 5d 21 00 be db 65 62 3e
       0.12217995 0.028785886 -0.12512727 0.22109167
000340 45 1b 8a 3d 25 86 8b bd 6b 39 1e be f3 12 54 be
       0.067434825 -0.068126954 -0.1545159 -0.20710354
000350 57 6f 21 3d 20 9e 52 be 8e de af 3d af 42 a4 3d
       0.039412823 -0.20568132 0.08587371 0.080205314
000360 ae 0e 7d bd 8f c6 80 be 24 9d 93 be 7a 13 79 bd
       -0.061781578 -0.25151488 -0.28830826 -0.06080959
000370 7a de 75 3e be 22 58 3d d9 3e 1b be 9a 8e 34 be
       0.2401065 0.052767508 -0.15160693 -0.17632523
000380 3a 34 5b be 43 fc c3 3e a2 f8 4c 3e 42 f8 e1 bc
       -0.21406642 0.38278398 0.20016721 -0.027584199
000390 cf 12 81 be bc fb b2 be 49 58 c4 3e 80 5a 79 3e
       -0.25209662 -0.34957683 0.38348606 0.2435093
0003a0 1e 58 86 3d 8f 82 62 bd 4e 33 bc be 40 e1 b7 3d
       0.06559776 -0.05530029 -0.36757892 0.0897851
0003b0 3f 5f 13 be 69 eb 6b be 79 8e d6 bd 75 9c 4c bc
       -0.14391802 -0.2303902 -0.10476393 -0.012488474
0003c0 92 19 9b bd d9 e1 be bd 0c d1 c7 bd a2 02 3a bd
       -0.075732365 -0.09320421 -0.097566694 -0.045412667
0003d0 25 43 77 3e 70 4e 14 be a2 9d ee bd a8 f0 f1 bd
       0.24146707 -0.14483047 -0.1165116 -0.1181348
0003e0 0d 3a 0f be 55 fa 08 3e 51 a9 55 be 9b 20 1a be
       -0.13986988 0.13376744 -0.2086537 -0.150515
0003f0 35 4b 1b 3c 46 46 0b bd 3f 20 e6 bd 51 c5 a5 be
       0.00947838 -0.034002565 -0.11236619 -0.32377103

conv2.bias f4 [16]
000000 05 8e d4 be 74 81 5b 3e 3e b4 04 bf 66 a0 1e 3e
       -0.41514602 0.21436101 -0.5183753 0.15490875
000010 02 62 f4 be 9a 8d c3 be ad c6 51 3f 66 cd 2a be
       -0.47731024 -0.3819397 0.8194378 -0.16679916
000020 b5 9f ab 3e be 0f 0f 3f 08 b3 e9 3e a8 4b 0f c0
       0.33520284 0.55883396 0.45644403 -2.2389927
000030 a2 f7 ee 3f fc 2d 7f be ac da c5 3e 48 05 f4 3f
       1.8669322 -0.24919885 0.38643396 1.9064112

fc1.weight f4 [120, 400]
000000 9d 99 c5 bd 31 29 90 bd ed 72 2f bd 04 31 25 be
       -0.0964844 -0.07039107 -0.04283421 -0.16131979
000010 cd 91 0e be 9b 83 03 be f1 29 25 be ca 6b 9e bd
       -0.13922806 -0.12843172 -0.1612928 -0.07735403
000020 e2 c7 09 3d c9 c5 58 3e 89 70 7b bd 98 14 8b bc
       0.03363789 0.21169199 -0.06138662 -0.016977593
000030 95 ac 9f bd 5f 3e be 3c f9 5a a1 bc e1 e0 69 bd
       -0.07796589 0.0232231 -0.0196967 -0.057099227
000040 46 a1 6d bd e0 c6 fb 3c 84 ac 04 bd 2f e6 12 3c
       -0.05801513 0.03073448 -0.032391086 0.008966013
000050 24 33 e5 bd 36 c7 10 be 99 ac 7e 3b 7b f4 24 3d
       -0.11191395 -0.14138493 0.00388602 0.040272217
000060 04 14 fd 3d f9 6a 8c bd 09 5f 0a be 18 2e 08 be
       0.12357333 -0.06856341 -0.13512816 -0.13298833
000070 c5 fc cf bd e3 07 30 be e9 3b 5a be f0 32 83 be
       -0.10155634 -0.17190509 -0.21311916 -0.256248
000080 3a 8a c9 bd 4a 2b 0f bd 39 9f 1f 3d 55 f5 d0 bd
       -0.09840818 -0.034953393 0.038970206 -0.10203043
000090 9b c3 09 be 29 6f 01 bc 15 58 38 3e a1 97 ea 3d
       -0.13453524 -0.007900038 0.1800235 0.11454702
0000a0 40 e7 6d bd e6 e6 bf bb c3 6e 83 bd c2 2f 20 3e
       -0.058081865 -0.0058563827 -0.064176105 0.15643218
0000b0 6a 42 da 3d a5 85 79 bd 00 cc 15 bd e3 02 ea bd
       0.10657199 -0.06091847 -0.036571503 -0.11426332
0000c0 9e 51 08 3e b7 cf 80 3d 75 45 62 bd 65 70 87 3d
       0.13312384 0.062896185 -0.05524202 0.066132344
0000d0 3c a1 3c 3d 10 df 8f 3e ac 08 97 3e a0 dc 02 be
       0.046052203 0.2809987 0.29498804 -0.12779474
0000e0 9e 37 11 3d cb 62 4f 3d 5b bc f9 3d 06 8f 5b 3e
       0.03545343 0.050631326 0.12194129 0.21441278
0000f0 52 37 00 be f7 ce bc bd 48 25 08 be ac 25 d0 bd
       -0.12521103 -0.09219163 -0.13295472 -0.10163435
000100 81 f6 90 3d 41 d9 dd 3c 8a b9 52 be a7 3f f8 3c
       0.07078267 0.027081134 -0.2057859 0.03030379
000110 c0 e8 39 3d 7c 9d 3c be 89 80 45 bd 39 0f 20 be
       0.045387983 -0.1841945 -0.048218284 -0.15630807
000120 80 2b 1e be ef e3 42 bd 1d 6c 40 be a0 ee 33 3d
       -0.15446281 -0.047580656 -0.18791242 0.043928742
000130 2f e1 d6 3d 72 85 30 bd a7 fc bc bd de 56 4e be
       0.10492169 -0.043096013 -0.09227877 -0.20150325
000140 73 55 46 3e 34 c0 fd 3d 7e 1d af 3d ca 13 bd 3d
       0.19368534 0.123901755 0.08550547 0.0923229
000150 47 f6 af 3c c9 17 ad 3d 31 6a 64 3d 8f f7 20 3e
       0.021479739 0.08451802 0.055765335 0.15719436
000160 2f 5e 19 3e b9 a2 21 be 66 32 b7 bc de 5d 06 be
       0.14977334 -0.1578473 -0.022362899 -0.13121745
000170 1d a6 97 3d 45 75 ec 3c c0 88 21 be 73 6b 30 3a
       0.074047305 0.028864512 -0.15774822 0.00067298784
000180 ff 99 05 bc f4 8b 0c bd 5f 0e 53 3c eb 9b f6 bc
       -0.008154391 -0.034313157 0.012881844 -0.030103644
000190 99 2c 23 be 25 10 80 bd 59 c4 e4 bc ff 6a 9a 3c
       -0.15934981 -0.06253079 -0.027925657 0.018849848
0001a0 76 e4 92 3b b1 1e 13 be 42 c0 51 bd 78 cc a5 bd
       0.004482801 -0.14367177 -0.051208742 -0.0809564
0001b0 07 5d cd 3d 52 30 db bd 47 4c f7 bd e1 9d 6e bd
       0.10027509 -0.10702576 -0.120750956 -0.058256034
0001c0 c0 6a 9a bc 71 10 1b bd 43 7f 31 bd 07 55 75 3d
       -0.01884973 -0.037857477 -0.043334257 0.05989554
0001d0 46 03 0d be 61 5d 9c bd 94 42 7f bd fe d1 ac bb
       -0.1377078 -0.07634998 -0.062319353 -0.0052740565
0001e0 b2 06 7f 3d 9d 71 06 3e 0e 1d bc bd 3c c0 10 be
       0.062262245 0.13129278 -0.09185229 -0.14135832
0001f0 9a 86 05 3d 9f 4c 0c bd 1f 60 6d bd 9e d1 2c 3c
       0.03259907 -0.03425276 -0.057952996 0.0105480235
000200 b0 25 12 bd 07 d3 24 bd 9a 3d 03 3d 25 1e 0d 3d
       -0.035680473 -0.040240314 0.03204117 0.034452576
000210 db 7e 24 3e 72 7e 22 3e aa 6e 69 bd 1d 3e bf 3d
       0.16064017 0.15868548 -0.056990303 0.09338019
000220 a1 ea 77 bd 0a 74 91 3d 6c 66 5c bd f7 14 c3 3a
       -0.060526494 0.07102211 -0.053808615 0.0014883567
000230 ae 7f 20 3d ce 89 89 bd 9f a3 af 3c 18 98 0e be
       0.039184265 -0.06715737 0.021440325 -0.13925207
000240 fb cb 83 3d 83 0e e7 3c 8c cb 00 be 8d b8 0c 3d
       0.064353906 0.028205162 -0.12577647 0.03435569
000250 4f 41 b1 3d 8b 77 a1 3c 77 d5 d0 bd 8f a2 5e 3d
       0.08655035 0.019710323 -0.10196965 0.054354247
000260 e9 e0 bc bd 11 68 a0 3c ab 22 7b 3e b0 05 02 bb
       -0.09222586 0.019580873 0.24524944 -0.0019839816
000270 ed bc 6a 3b 4d 73 fe bd cd 98 e8 bd 51 48 d9 3d
       0.0035818175 -0.12424336 -0.113572694 0.106094964
000280 9b 29 20 bb 7d fe c6 bd fb b3 11 be db 74 82 bd
       -0.0024438861 -0.097165085 -0.14228813 -0.06369945
000290 14 9a 8c 3d 90 48 50 bd 72 87 f7 bd 52 ee d8 bd
       0.068653256 -0.05085045 -0.12086381 -0.10592331
0002a0 62 ff e2 3c 45 55 b5 3d 9c aa e5 bd 4a 06 3a be
       0.027709667 0.088541545 -0.11214182 -0.18166462
0002b0 d4 b6 bd bd c7 2a 5d bd 05 10 d1 3c 23 c9 85 be
       -0.09263387 -0.053995874 0.025520334 -0.26130018
0002c0 87 0b eb bd 60 35 73 3d b9 5a 8d 3d 3e c6 3c 3e
       -0.11476808 0.059377074 0.069020696 0.18434998
0002d0 82 c2 1d be b2 8e e2 bc 48 5d 9b bb 80 c9 ca 3d
       -0.1540623 -0.027655933 -0.0047413446 0.09901714
0002e0 e8 4a f0 3d 1d c9 c7 bc 42 3b 0b bd 8d 92 0e 3e
       0.11733037 -0.02438789 -0.03399206 0.13923092
0002f0 e1 1d 08 3d 48 b9 15 3d a4 b8 d9 3d d6 45 6b 3d
       0.03323162 0.03655365 0.106309205 0.057439648
000300 de 15 28 3e 9a 5e cf 3d b0 7f 20 bc 9f ee 86 3d
       0.16414592 0.10125466 -0.009796068 0.06588482
000310 20 00 49 bd ce fd 80 3d 7e 9c cb bb aa 01 9e bd
       -0.049072385 0.062984094 -0.0062137237 -0.07715161
000320 a7 0e 53 bd 8a 83 46 bd 11 f5 25 bb e6 cf 01 be
       -0.051527645 -0.04846529 -0.0025323073 -0.12676963
000330 1e b2 26 be 32 be c0 bd e3 b0 19 be e9 b2 55 bb
       -0.16278884 -0.09411277 -0.15008883 -0.003260786
000340 8d 10 66 3e ed 83 58 bd d2 80 2f be 79 21 04 bc
       0.22467251 -0.05286019 -0.17138985 -0.008064621
000350 8a 87 dc 3d 64 b2 1b 3e 0a d7 01 3e cb 76 aa bd
       0.107680395 0.1520477 0.12679687 -0.08323439
000360 1c 62 e1 bc 77 76 ef 3d bd 85 2a 3e b6 3b 15 bc
       -0.027512603 0.11692517 0.1665258 -0.0091084745
000370 c2 8f 58 bd a7 1c 71 bd 06 90 b3 bc a2 9f c1 3d
       -0.052871473 -0.058865216 -0.021919262 0.09454276
000380 6d 10 37 bc 48 fe 93 3c 29 3f b1 bc c0 99 03 be
       -0.01117335 0.018065587 -0.021636562 -0.1285162
000390 b5 4c 51 be 74 b6 fc bd 64 8f 00 3e 4d b6 30 bd
       -0.20439418 -0.12339488 0.12554699 -0.043142606
0003a0 71 70 0d bd ed b0 d9 bd 59 89 88 bc c3 0a d3 3d
       -0.03453106 -0.10629449 -0.016667055 0.10304787
0003b0 f7 df 30 3e 0b c9 49 3d d7 c1 df bb e2 06 b1 3d
       0.17272936 0.049263995 -0.0068285274 0.08643891
0003c0 25 0b 23 3b 15 99 dc bc 06 de c0 bd 3b 21 e4 3b
       0.0024878469 -0.026928464 -0.094173476 0.006961969
0003d0 c3 cf 16 3e 08 97 b8 bd 16 d3 95 ba 68 1e b4 bd
       0.14727692 -0.09013182 -0.0011430706 -0.08794862
0003e0 a0 f4 eb bd 05 f2 31 3d 6a 0d 1a 3c 4b 5e 2b bd
       -0.11521268 0.0434437 0.009402612 -0.04183797
0003f0 7f c8 2a be bf bd 8a 3d 19 96 9b 3d 3d 40 18 3e
       -0.16678046 0.067744724 0.07596988 0.14868255

fc1.bias f4 [120]
000000 04 5c 83 bc f7 7b 0f 3d f5 5c 7e 3d e2 03 c2 bd
       -0.016035087 0.03503033 0.06210037 -0.09473397
000010 e0 d2 87 3e 88 00 12 bd 70 b0 09 3d 2a cf 33 bb
       0.26528072 -0.035645038 0.03361553 -0.0027436712
000020 90 e9 a1 bd 41 dd 7c 3d ce b7 72 3d 09 d0 2c 3d
       -0.07905877 0.06173444 0.05925732 0.042190585
000030 e5 4a be 3c 99 17 ee 3e 9d d1 52 3e 2f db d5 bc
       0.023229072 0.4650238 0.20587774 -0.026105491
000040 f2 b4 b2 3d 2b 73 ab bc f8 9e ce 3e 59 ed 69 3c
       0.08725919 -0.02092894 0.4035566 0.0142777795
000050 aa 10 0e 3e b0 79 f4 3c d4 c9 d5 bd 14 99 9d 3e
       0.13873544 0.029843181 -0.10438886 0.30780852
000060 2f 1f a3 3e c7 aa 01 3e 29 6b 06 3e 57 83 a2 3c
       0.3185973 0.12662803 0.13126816 0.019838018
000070 0e cf 0f be ac 40 03 bd 53 b7 12 3d 90 17 2e 3e
       -0.14043829 -0.032044098 0.035819363 0.17001176
000080 06 00 b5 3d 2c 1c d0 bd 27 cd cd 3d a0 30 43 bb
       0.08837895 -0.10161623 0.10048895 -0.0029783621
000090 19 57 a6 be f1 a2 c9 3d cb 49 0e 3e 38 7e 41 be
       -0.32488325 0.09845532 0.13895337 -0.18895805
0000a0 b8 8f 13 3b b3 43 83 bd 24 e6 2b be b8 40 ce bd
       0.0022516083 -0.06409397 -0.1678701 -0.10070938
0000b0 4b 5c 8c be 9e 34 3f 3e a5 3f ca 3a 5d 9e 47 3e
       -0.27414164 0.18672416 0.0015430345 0.19494005
0000c0 d9 00 8c bd 73 54 ce bc 32 21 d1 3e 1c 71 61 be
       -0.06836099 -0.025186753 0.4084564 -0.22015804
0000d0 b0 dd 15 3d 78 59 a6 bd 31 0d 82 3e a3 ef e4 bd
       0.03658837 -0.081225336 0.2540069 -0.111785196
0000e0 8e b0 b6 3d be 9c 50 bd fc b8 91 bd 8f 82 7c 3d
       0.08920394 -0.05093073 -0.07115361 0.061647948
0000f0 27 0a 3c be b2 76 2f 3c d6 3d b2 bd 8c 6a 7b 3c
       -0.18363248 0.0107094515 -0.087032005 0.015345227
000100 ab f4 60 3d bb 42 86 3d 7a 46 85 3e f6 51 89 3e
       0.054920834 0.065556966 0.26030332 0.26820344
000110 23 82 06 3e c7 00 39 bd b6 0c 1f be 14 b6 9a bd
       0.1313558 -0.045166757 -0.15532193 -0.0755426
000120 85 b9 86 bd a4 d6 44 3c 0e 35 b8 3d 89 bd a0 3d
       -0.06578354 0.012014065 0.089944944 0.07848651
000130 72 2e c9 bd e6 71 8e 3e 3a 9c 99 3d 96 b1 dd bc
       -0.09823312 0.27821273 0.07500501 -0.027062219
000140 ba 2e 4c be 4d fa 8f be 56 ca a5 bd b2 39 d7 3d
       -0.199397 -0.28120652 -0.08095233 0.105090514
000150 6b 40 40 3d 3b c0 35 3d 77 0b f6 bc e2 03 34 3e
       0.046936434 0.04437278 -0.030034764 0.17579606
000160 06 89 83 3e da 0d ae 3d 32 17 f9 3d a9 f6 9a 3d
       0.25690478 0.08498736 0.12162627 0.07566578
000170 2a 17 14 be c9 54 da bd 3c 6b 05 be 10 31 1d 3e
       -0.14461961 -0.10660703 -0.13029188 0.15350747
000180 64 d7 ee 3d db 8d d4 bc 2e ce 14 3e 84 e9 67 bd
       0.11662176 -0.025946548 0.14531776 -0.056619182
000190 fb 9e 0a bb a3 d8 11 3e a4 8d 6e bd c3 d3 c6 3d
       -0.0021151889 0.14242797 -0.058240548 0.09708359
0001a0 0f 55 66 bd 0b 49 35 3e 4f 57 ba 3d dd 3f 94 3e
       -0.056233462 0.17703645 0.09098684 0.28954974
0001b0 24 06 65 3e 26 c2 c1 3b d2 40 ad 3d e8 2b 11 be
       0.22365624 0.005913037 0.08459629 -0.14176905
0001c0 86 46 48 bd de 61 8c 3e bc 2d 03 3d 17 74 c7 3d
       -0.04889538 0.27418417 0.032026038 0.09738939
0001d0 8e d6 03 be e9 c2 11 be 38 16 26 3d 7e 78 f6 bc
       -0.12874815 -0.14234509 0.040548533 -0.030086752

fc2.weight f4 [84, 120]
000000 ad 9f af bc a5 2a 14 be b7 72 26 bd 70 40 19 be
       -0.021438444 -0.14469393 -0.040636744 -0.14965987
000010 41 d4 ba bd 86 76 c1 bc f5 32 ac bd c9 12 a2 bb
       -0.091225155 -0.023616087 -0.08408157 -0.004946087
000020 61 db 9c 3c 8c ab 09 3d 15 fb 8c bd 60 7d 00 3c
       0.019147577 0.033610865 -0.068838276 0.007842392
000030 5e d5 b9 3c bf e2 b5 bc 94 64 e6 bd 1a 82 b5 bd
       0.02268475 -0.022202848 -0.112496525 -0.088627055
000040 52 9e 2d 3d 95 ed 96 bd 3d 8d fb 3d 12 04 b5 3d
       0.042387314 -0.07369534 0.122827984 0.08838667
000050 97 8b 5c bd 75 91 16 3e 18 64 e2 bc 24 35 7d 3c
       -0.05384406 0.14703925 -0.027635619 0.015454564
000060 db 7c 35 3c f0 54 be bd 32 31 18 be 34 61 b7 3d
       0.011077131 -0.09293544 -0.14862517 0.08954087
000070 e7 64 88 3d 8c 82 04 be 90 8c 12 be f2 ec ea 3c
       0.066598706 -0.12940425 -0.14311433 0.028677437
000080 52 7a 41 be 05 82 c0 bd 34 a1 17 3c 28 77 10 be
       -0.18894318 -0.09399799 0.009254742 -0.14107955
000090 85 6b 51 3d 51 fc b1 bd a4 ce c8 bd eb 14 7f bb
       0.05112793 -0.08690704 -0.098050386 -0.003892238
0000a0 51 c7 cc bd 48 6a 40 bd 75 92 46 bc 7c 2f e4 bd
       -0.09998954 -0.046976358 -0.012119879 -0.111418694
0000b0 ba 3a 84 bd 7e fe 3f bd 71 07 3e 3c 9d c1 c1 bd
       -0.06456514 -0.046873562 0.011598454 -0.09460757
0000c0 39 cc d4 bc ee cf 21 3e 56 c5 f7 bd 48 9f f1 bc
       -0.025976287 0.15801975 -0.12098186 -0.029494897
0000d0 cd 18 97 bc 4c 34 61 3d 8f ad 2e 3e 9c 95 33 be
       -0.018444443 0.054981515 0.17058395 -0.1753754
0000e0 bd 1a 3b 3d 82 28 55 bd cc 4f 4f 3c 81 76 73 3d
       0.045679796 -0.052040584 0.012653302 0.059439186
0000f0 50 3a eb bc 18 8c e8 bd 98 4b 05 be ff 79 d8 bc
       -0.028714329 -0.11354846 -0.13017118 -0.02642536
000100 f2 23 62 3c 57 90 af bd 05 4d 5f 3d 28 73 a8 bd
       0.013802515 -0.085724525 0.05451681 -0.08225089
000110 74 b3 d2 bd e5 cb 02 3d b8 35 d5 bd 02 14 aa 3c
       -0.10288134 0.03193273 -0.10410637 0.020761494
000120 27 70 57 3d 40 e1 0b bd c2 9f c3 bb 65 9c 91 bc
       0.05259719 -0.034150362 -0.0059699723 -0.01777477
000130 31 c9 52 3d db cb ad bd 4f b0 fe bd 6a f2 57 bd
       0.051461402 -0.08486148 -0.12435972 -0.05272142
000140 f5 04 7f bd 50 40 dd bd 3a b2 e1 bd 80 26 12 3c
       -0.062260587 -0.10803282 -0.11020322 0.008920312
000150 48 a4 6a bc a7 75 e1 bc 94 9c 1c bd f3 66 02 be
       -0.014321394 -0.027521921 -0.038235262 -0.12734585
000160 58 63 9e 3c b0 46 54 bd ed 96 54 bd fe 8e f7 3c
       0.01933448 -0.051825225 -0.051901747 0.030219551
000170 91 2f 71 3d 32 3d 5e 3d 48 34 3f 3d 78 28 a9 3b
       0.058883253 0.05425758 0.04668072 0.005162295
000180 07 82 3b 3a 32 07 cd bd fa ea 80 3d a8 9a 84 3d
       0.00071528595 -0.10011138 0.06294818 0.06474811
000190 6e a6 10 be be 4a 09 3e f1 e7 8b 3d b8 31 ee bc
       -0.14125988 0.13407418 0.06831349 -0.029076442
0001a0 cc 34 89 bd 24 18 b7 3c b6 8b 23 be 93 ee c7 bd
       -0.06699523 0.022350378 -0.15971264 -0.09762301
0001b0 68 69 aa bd d0 db 9f 3d 97 b3 ed bc 11 7e 05 3e
       -0.08320886 0.07805598 -0.0290163 0.13036372
0001c0 14 ef 7f bc d1 19 e2 bd 02 d3 b1 3d 5c 8c b0 bd
       -0.0156209655 -0.1104008 0.08682825 -0.086205214
0001d0 66 19 a7 3c fd 34 75 be a4 82 c9 bc e9 5e 11 bd
       0.020397853 -0.23945995 -0.024598427 -0.035490904
0001e0 81 a4 73 3e 0e c8 0f be 48 d2 28 bc 05 4b 34 3e
       0.23793222 -0.14041159 -0.010304041 0.17606743
0001f0 e4 ef 95 bc c1 1c c6 bc 9b 27 37 bd 88 2d f4 bd
       -0.018302865 -0.024183633 -0.044715505 -0.11922747
000200 78 db e1 bd 5a d7 f1 bd b7 f3 92 be 87 bf af bd
       -0.110281885 -0.11808653 -0.28701565 -0.08581453
000210 20 3d 48 bd 51 69 0a bd 0f 84 92 bd 0f 70 85 be
       -0.04888642 -0.033791844 -0.071540944 -0.26062056
000220 10 bb 54 bd 05 5d 90 3d 87 3b 4c 3e d2 70 a1 3d
       -0.05193621 0.07048992 0.19944583 0.07882847
000230 6a 06 9f 3d 80 a1 2c 3e 3e 5c d1 3c c6 eb c2 bd
       0.07764895 0.16858482 0.02555668 -0.095176265
000240 be d4 08 3e 8b 67 02 be 37 15 37 3e bb 41 2d 3d
       0.13362405 -0.12734811 0.17879187 0.042299014
000250 c6 30 14 bd 1a b2 24 be 1d 05 29 3e c8 63 3a 3d
       -0.036179326 -0.16083565 0.16505857 0.045505315
000260 7e 82 ce bd 57 60 79 3e ba 50 15 be 94 06 1d be
       -0.10083483 0.24353157 -0.14581576 -0.1533454
000270 47 91 5e be 78 0b 1e be 23 55 c8 bc 03 68 ca bc
       -0.21735106 -0.15434062 -0.024454659 -0.0247078
000280 05 49 11 be f6 97 a9 bd db f5 62 be cd e2 78 bd
       -0.14188011 -0.082809374 -0.22164099 -0.06076317
000290 9c 01 cd bd 59 bd 35 3e 73 dd 76 3d ee a7 db 3c
       -0.100100726 0.17748012 0.060269784 0.026813474
0002a0 56 1e 83 3d 6c 2e f0 3d 2e 2a 59 bd 0a 73 ac bd
       0.064022705 0.11727604 -0.05301874 -0.084203795
0002b0 37 1b 03 be 63 88 37 3d 52 37 24 3e 74 78 43 3d
       -0.1280335 0.044807803 0.16036728 0.047722295
0002c0 33 fc 46 3d 69 f8 9c 3a 11 cd 3f 3d 8c 58 8d bc
       0.04858036 0.0011975887 0.046826426 -0.017254137
0002d0 aa f8 65 3b de 3d 41 bd d3 0a 34 be a5 ec 2d be
       0.0035090842 -0.04717814 -0.17582254 -0.16984804
0002e0 8d 46 ed 3c 42 7a 83 bd ba a5 27 3e 3b a5 97 bd
       0.028964305 -0.06419803 0.16371813 -0.07404562
0002f0 63 30 d1 3c cc 10 44 be 72 47 59 be 38 dc fa bd
       0.025535768 -0.19147032 -0.2121866 -0.12249035
000300 4f a0 81 3d 32 2b 86 bd 9a 7c 8f bd d1 7e 3a 3c
       0.063294046 -0.065512076 -0.07006188 0.011382774
000310 06 e3 83 be 75 5a f5 bd 61 7b 8d bd cc d4 2d 3d
       -0.25759143 -0.11980144 -0.06908298 0.042439267
000320 86 0a 5f 3b 2f c6 aa be b2 01 fe bd b0 be e3 3d
       0.0034033372 -0.33354327 -0.12402667 0.11120355
000330 b3 54 d1 3d 7e c5 06 3e 64 df 4c bd 64 a0 3b 3e
       0.10221233 0.13161275 -0.05001773 0.18322903
000340 6f 20 cf bd 0c 23 32 be f3 32 3c be df bd 9e bd
       -0.10113608 -0.17396182 -0.1837881 -0.07751059
000350 c4 eb 8f 3d 72 1a fc 3d e5 60 94 bd e4 47 d5 bc
       0.070273906 0.123097315 -0.07245044 -0.026035257
000360 c5 2f 38 3e 3d e0 96 3c 02 3f 54 bd a2 e5 6d bd
       0.17986973 0.018417472 -0.0518179 -0.058080323
000370 7a a3 47 bd 0c 4e d0 3d 74 5e 5e bd ee 34 8b 3d
       -0.048739888 0.10171136 -0.054289296 0.06797205
000380 7d a3 b0 bd 22 9b bd 3d 46 62 30 3d d4 00 a9 bd
       -0.08624933 0.09258105 0.04306247 -0.08252111
000390 83 63 ce 3b 84 83 18 3d 83 1d 13 3d 71 2d 75 3d
       0.006298484 0.037234798 0.035916816 0.05985779
0003a0 72 3a cf 3c 1f 48 bd bd d5 a2 eb bd 77 c3 2d 3e
       0.025296424 -0.09242272 -0.11505667 0.16969095
0003b0 56 f6 df bd a2 a3 33 bc f9 4a 69 bd 82 40 43 bb
       -0.10935657 -0.010964306 -0.056956265 -0.0029793088
0003c0 6c 76 af bd 14 bd 24 be 7b cf d4 bd 31 d1 32 bd
       -0.08567509 -0.16087753 -0.10391136 -0.04365653
0003d0 de b9 ff 3d ed fc b5 bd 0b a8 df 3d fc d1 9b 3b
       0.12486623 -0.088861324 0.109207235 0.0047552567
0003e0 5c a6 1a 3d 0b ea b9 bd 25 8b 12 bc 69 72 b0 bd
       0.03775631 -0.09077843 -0.008944307 -0.08615572
0003f0 3e 76 27 3e c1 71 2a 3e 1e cf 2c 3c 13 a7 0e bc
       0.163537 0.16644956 0.010547427 -0.008706826

fc2.bias f4 [84]
000000 4a 90 58 3d 3d b8 e9 3e be ec 56 3e 66 61 7c bb
       0.05287198 0.45648375 0.20988747 -0.0038510202
000010 cf 51 83 bd 81 a0 ed 3e 7d 53 4b 3f f0 e8 ac 3d
       -0.06412088 0.46411517 0.7942427 0.08442867
000020 d1 07 07 3f 31 c8 c6 3e c7 a8 43 bc 3f 06 ae 3e
       0.527463 0.3882461 -0.011942095 0.3398914
000030 c9 9f 02 3f 12 16 5a 3d 1c 59 ed bd c8 d3 7c 3e
       0.5102506 0.053243704 -0.11589262 0.24690163
000040 f3 f2 94 bd bf 9a 6e 3e b0 fb af 3e 3e ed 13 3f
       -0.072729014 0.23301218 0.3437171 0.5778388
000050 6d 22 08 3f d9 00 a9 3e fa 47 d3 3e c2 64 f9 3d
       0.5317753 0.3300846 0.4126585 0.12177421
000060 df a5 b0 3d af ef f1 3d d4 a7 05 be d0 2b 10 3f
       0.086253874 0.11813294 -0.13052303 0.5631685
000070 c4 dc 3d 3f 70 05 b2 3d f1 66 f3 3c 7a 13 ee 3e
       0.74164987 0.08692443 0.029712172 0.46499234
000080 4a 5f 21 3f eb c6 8d 3e 85 87 7e 3e 20 0d f2 3d
       0.63036025 0.27690825 0.24856384 0.1181891
000090 ce 82 bf 3b 14 4f dc 3d f7 02 56 bd f5 fb a5 3e
       0.0058444506 0.107572705 -0.05224892 0.3241879
0000a0 ef 43 a8 3e 83 00 d4 bc a9 19 f6 bd 27 df 14 3e
       0.3286433 -0.02587915 -0.12016613 0.14538251
0000b0 9d 1f e9 3e f6 76 a3 bd ae 36 be 3e 15 39 87 bd
       0.45531932 -0.079816744 0.37151092 -0.066026844
0000c0 da e7 ef bd c5 8c 12 be b3 ea 4e 3e 08 5e 34 bd
       -0.11714144 -0.14311512 0.20206718 -0.044034988
0000d0 62 49 ba 3d df 11 0c 3e 4f a6 be bd 2a 5b 3a 3e
       0.09096028 0.13678692 -0.093090646 0.18198839
0000e0 02 1d 01 be 7a 54 0a 3d 7d 46 13 bd bc ae 83 3d
       -0.12608722 0.03377197 -0.035955895 0.06429812
0000f0 f9 eb 20 bd 5d a9 a7 bd 8e f3 84 3e 39 6e bb bd
       -0.03928754 -0.081866 0.25967067 -0.09151883
000100 04 e7 10 bd 6a a9 0f 3f 70 08 9a 3d 85 eb bc 3e
       -0.035376564 0.5611788 0.075211406 0.36898437
000110 ee 29 38 3e d1 9c ac 3e ab 22 df bc bb b5 ae bd
       0.17984745 0.3371339 -0.02723821 -0.08530756
000120 ae 22 4f 3e a1 a2 b4 3e f9 57 dc 3e 30 0e 68 bd
       0.20228073 0.35280326 0.43035868 -0.056654155
000130 c5 b8 a2 bc f0 2e 2c 3e 65 a3 fd bd 36 26 25 3e
       -0.019863496 0.1681478 -0.12384681 0.16127858
000140 af 10 a7 3e ce d2 a4 3c 22 14 01 be a5 0e aa bc
       0.32629916 0.02012005 -0.12605336 -0.020758936

fc3.weight f4 [10, 84]
000000 99 a4 49 3e c3 17 0b 3e 13 d1 40 be a4 28 48 be
       0.19691695 0.13583283 -0.18829755 -0.19546753
000010 9f 4b 49 3e 5e cd 68 be f1 3f e7 be 11 6c e3 bd
       0.19657753 -0.22734591 -0.4516597 -0.111045964
000020 f3 ee 03 3e a6 71 49 3e ad 25 6e be 9f 36 92 be
       0.1288412 0.1967226 -0.2325656 -0.28557298
000030 00 32 14 be d6 ea 3c 3e d7 50 80 bc 2f 0b b0 3d
       -0.14472198 0.18448958 -0.015663547 0.08595883
000040 96 0b c2 3d 95 e0 82 be 93 fd 0e 3a ca e8 7c 3e
       0.09474866 -0.25561967 0.00054546556 0.24698177
000050 e4 ae 99 3c 2e fb f3 bd 25 72 96 be 18 f5 4e 3e
       0.018760152 -0.11913143 -0.2938396 0.20210683
000060 b9 fb 34 3e df 86 2a 3e 22 31 86 3d a0 59 8c be
       0.1767415 0.16653012 0.0655234 -0.27412128
000070 bb 23 bc 3d 56 9e 9c bd 35 42 96 3d 37 05 81 be
       0.091865025 -0.07647388 0.07336847 -0.2519929
000080 e3 ac 22 3e 72 c3 81 3e 94 81 c7 3b b7 bc 44 3e
       0.15886264 0.25344425 0.006088445 0.19212614
000090 bc e9 82 bd 49 4f 05 3e 18 7b ca bd b9 7b 9a be
       -0.063922375 0.13018526 -0.098867595 -0.30172518
0000a0 ce f1 b0 3d ba 53 46 3d ca 7d 68 3d 37 3a 1f 3e
       0.086398706 0.04841969 0.056760587 0.15549551
0000b0 33 ba 92 be e8 6a 05 bd 77 20 00 3e c8 6c 90 3d
       -0.28657684 -0.032572657 0.12512384 0.070519984
0000c0 3e 81 fa 3d 5d 5d 1c 3e ff 7b 0f be 6f 64 5a bd
       0.12231682 0.1526999 -0.14012145 -0.053318437
0000d0 07 12 0f be 94 54 5b 3e a0 66 27 3e 33 b3 1a be
       -0.1397172 0.21418983 0.16347742 -0.15107422
0000e0 ca 5e 19 3e 73 0e 62 bd 34 fd a0 bd b3 4e f6 bd
       0.14977565 -0.05518956 -0.07860795 -0.120267294
0000f0 cc b3 1f 3e 3d 22 a1 bd ff 8f 14 bd 9b c8 a9 bb
       0.15595931 -0.078678586 -0.036270138 -0.0051813847
000100 1c 21 1a be 79 cc fe bd cd 4e 0b 3e e0 37 18 3d
       -0.15051693 -0.12441344 0.13604279 0.03716266
000110 18 da 2d 3e 5c 27 21 3e 7a 1c 95 bc da 2d 6d 3e
       0.16977727 0.1573767 -0.018202055 0.23162022
000120 f4 d0 17 bd 5b 53 42 3e 2d 0a 45 3c be 67 ae bd
       -0.037064508 0.1897711 0.012026352 -0.08515881
000130 22 24 a2 bd b1 b8 54 3e 1f 24 b8 bc 5f bc 73 3d
       -0.07917048 0.20773579 -0.022478161 0.059505817
000140 08 a9 95 3d 3b d6 57 3e 2a 44 9f 3e ec e5 de 3d
       0.07307631 0.21077816 0.31106693 0.10883698
000150 d4 90 e9 3d 0d a6 a3 be 88 3d 68 bc c8 c3 e6 bd
       0.11404577 -0.31962624 -0.014174826 -0.11267811
000160 0c 50 44 3e eb d4 7d bd eb 96 4a be ea 76 43 bd
       0.1917116 -0.061970633 -0.19784133 -0.047720827
000170 eb ac 23 3e bd 07 b0 3d 91 8e 2a 3e c4 c0 2d bd
       0.15983932 0.08595226 0.16655947 -0.042420164
000180 54 df 9a bd d4 fd ac bd be d0 ba 3d ec fd 8f 3e
       -0.07562128 -0.084468514 0.09121846 0.28123415
000190 5c 7e 91 bd 45 89 93 bd 0b 28 71 be 1a ac 4c be
       -0.07104179 -0.072039165 -0.23550431 -0.19987527
0001a0 82 94 97 be ad 2f 94 3d 3f 22 9d be 28 3b 66 3e
       -0.2960549 0.07235656 -0.3069019 0.22483504
0001b0 c6 a8 a4 3e d9 86 2b 3d 50 96 e2 bc 58 4c b0 be
       0.32160014 0.041876648 -0.027659565 -0.34433246
0001c0 25 36 38 be be 50 52 bc 16 a5 b2 be 37 55 31 bd
       -0.17989404 -0.012836633 -0.34891576 -0.043294158
0001d0 cf 27 64 3d 12 1f fc bd 52 25 da bc 76 21 ff b9
       0.055702027 -0.12310614 -0.026629124 -0.0004866232
0001e0 76 b7 74 3e a7 53 5b 3d ec d4 38 3e 35 85 ba 3d
       0.2389811 0.053546574 0.18049973 0.091074385
0001f0 2c 4b 15 be 9a af 07 be 6a 47 fd bc 12 3e 2c be
       -0.14579457 -0.1325058 -0.030917842 -0.16820553
000200 d2 7f 40 3d 4e 4c 8b 3c 9b 85 1f 3e 6a 80 4e 3e
       0.0469969 0.017004158 0.1557831 0.20166174
000210 1c b0 8b 3c 32 15 1c bd f5 e4 94 bd 33 44 97 3c
       0.017051749 -0.03810615 -0.072702326 0.018465137
000220 ba b4 02 3e e9 83 9e 3b 94 e5 02 3e e9 0a 07 3e
       0.12764254 0.0048375023 0.1278289 0.13187756
000230 03 b0 52 3c 89 67 4a 3e 0f d3 97 bd d1 6a ac bd
       0.012859347 0.19766058 -0.07413303 -0.08418811
000240 f8 bf 81 bd 07 ef 76 bd 75 74 a9 3d 5a 50 f8 3d
       -0.06335443 -0.060286548 0.082741655 0.12124701
000250 a3 8c b2 3d 5c d5 4a be 7f d5 4f bd bc 6c 95 be
       0.087182306 -0.19807953 -0.050740715 -0.2918452
000260 3b cd cb 3e a8 00 80 bc 07 94 cd bd 79 27 37 be
       0.39805016 -0.015625313 -0.100379996 -0.17886151
000270 48 09 12 be 2a cf cc bd 6e 1f 42 be dc af c3 3e
       -0.14261353 -0.10000451 -0.18957302 0.38220108
000280 05 a4 a0 3e 93 a9 30 3d 6f b3 5e 3e 8a 8a 00 3e
       0.31375137 0.04313047 0.21748136 0.12552848
000290 3a c9 4b be ce 5a 71 3e 5c 08 af 3d 2e 81 62 bd
       -0.1990098 0.23569795 0.08546516 -0.055298977
0002a0 93 cd b3 bd b6 be 66 3e 64 34 31 3c c9 04 fc 3d
       -0.087794445 0.22533688 0.010815714 0.123056
0002b0 fd 67 b9 3c 88 e3 64 3d d7 ad a3 3d 99 e8 a2 3a
       0.022632593 0.055881053 0.07992142 0.0012428939
0002c0 84 58 4d be 50 dc a6 bc 92 46 b7 3d ae 90 d0 3d
       -0.20053297 -0.020368725 0.08949007 0.101838455
0002d0 e7 1e 07 3d 7b 73 ad 3d 38 3e ab 3d 5a 76 8e 3c
       0.032988455 0.08469292 0.08361477 0.017390419
0002e0 7a 41 26 3d f7 ec 8b 3e 7b 1e 01 3e f7 b1 8c 3d
       0.040589787 0.27329227 0.12609284 0.068698816
0002f0 87 74 52 3e 57 5b c7 bd cd 0a d9 3d ce 1e 9e be
       0.20552264 -0.097342186 0.10597763 -0.30882877
000300 3a 9e c2 bd 39 d5 f2 bd fb 46 1f 3e fd b6 4e 3e
       -0.095028356 -0.11857075 0.1555442 0.20186992
000310 1e a0 87 3c d2 99 6e 3d 05 90 b8 3e 97 c2 bd 3d
       0.016555842 0.058252163 0.36047378 0.09265631
000320 ea 11 b1 bd 7a 0a f0 3d 73 5a 88 bd b9 51 15 be
       -0.08645995 0.11720748 -0.06657877 -0.14581956
000330 22 f7 5d be 95 a9 84 bd 68 03 e4 bd 10 64 d5 3d
       -0.21676305 -0.06477658 -0.11133462 0.10419476
000340 ad f8 0b 3c 47 20 00 3e 56 98 28 3e 0f 6f 2b 3e
       0.008543176 0.12512313 0.16464362 0.16741584
000350 32 bb e7 bd ad 9a 0a be b0 a8 80 3b 0d 81 d3 3d
       -0.113150015 -0.13535567 0.003926359 0.10327349
000360 27 38 c3 3d 8c 92 15 3d 79 eb ea bd a6 34 68 3d
       0.095321946 0.03651671 -0.11470694 0.056690834
000370 ef fe 91 3c fd a0 37 3e fb 8d 2f bd b8 cf 3d bd
       0.017821757 0.17932506 -0.042860013 -0.046340674
000380 a4 70 26 3e cf 48 51 3e 6c 30 0d be ca a9 b8 bd
       0.16253906 0.2043793 -0.13788003 -0.0901676
000390 86 e5 85 3d 7e 5b cc 3d 42 c8 c5 3d b6 c4 20 3e
       0.06537919 0.09978388 0.09657337 0.1570004
0003a0 49 21 d3 3c a8 46 f2 3d 31 17 19 3e 17 c9 a3 3d
       0.025772708 0.11829883 0.14950253 0.07997339
0003b0 39 62 a2 bd 12 ce 98 3e 84 95 02 be e8 dd e3 3d
       -0.07928891 0.2984472 -0.12752348 0.1112631
0003c0 59 dd 40 3e 05 8a 92 3d aa c5 bb bd 95 58 42 3e
       0.18834437 0.071552314 -0.09168561 0.18979104
0003d0 34 e0 a9 bd c8 b7 b5 3d a9 23 6f bb d6 d2 53 be
       -0.082947165 0.08872944 -0.003648976 -0.20685896
0003e0 b0 a8 20 3e e6 93 3d be 00 55 5c 3e ad ba 9d 3c
       0.15689349 -0.1851345 0.215168 0.019254053
0003f0 53 a3 98 3c 9f 20 f3 ba be b4 23 3c 9d 66 05 3e
       0.018632567 -0.001854915 0.009991823 0.13027425

fc3.bias f4 [10]
000000 0d d4 99 be af 85 7c bf 65 a4 48 be de e9 ee 3e
       -0.30044594 -0.98641485 -0.19593962 0.46662802
000010 da 79 42 3f 1a be 5a bd ae ae 10 3e e0 17 7f be
       0.7596718 -0.05340395 0.14129135 -0.24911451
000020 ca 59 8d 3e 5c 4a 07 be
       0.27607566 -0.1321196
