Exs/Ex1/cifar_net_BaseLine_15_0.001.pth (torch, 251447 bytes, 10 tensors)

conv1.weight f4 [6, 3, 5, 5]
000000 a7 a3 71 3e d1 60 bc 3d da e5 45 be 7f 78 9a be
       0.23597585 0.09198154 -0.19325963 -0.30170056
000010 12 d2 01 be f8 47 2c be 55 9a ba be d8 78 1b bf
       -0.12677792 -0.16824329 -0.3644587 -0.6073127
000020 3d 73 12 bf 4d f4 ca be 93 72 41 be d5 ac 14 bf
       -0.5720709 -0.39639512 -0.18891363 -0.5807622
000030 af 22 19 bf 13 40 05 bf 94 2d d6 be cf e1 b3 3d
       -0.5981855 -0.52050894 -0.41831648 0.08783304
000040 1f 9a 86 be f9 8f 11 bf 23 a9 dc be 3f a1 b9 bd
       -0.2628946 -0.5686031 -0.4309779 -0.090639584
000050 df 24 ee 3e d5 90 8b 3e 14 e1 bd 3d b0 fb 7c 3d
       0.46512505 0.27258936 0.09271446 0.061763465
000060 63 2f a7 3d 95 8e a7 3e 6e e5 99 3e 79 15 41 3e
       0.08163335 0.3272597 0.30057853 0.18855847
000070 ea 7a ee bd 05 5d 13 3e 3c cc 3b 3e 1f 76 69 3e
       -0.11644538 0.14390953 0.18339628 0.22798966
000080 76 91 47 3e 12 6b 2d 3e 2a e0 34 3e 3d 39 74 be
       0.19489083 0.16935375 0.17663637 -0.2384996
000090 f4 a0 cf 3d 93 72 ec 3d 8e 7b 34 3e ec 8c ed 3d
       0.10138121 0.11545291 0.17625257 0.11599144
0000a0 e4 49 61 be d1 1a 8d 3d cf a7 f0 3d a0 b0 5e 3e
       -0.22000843 0.068898804 0.11750757 0.21747065
0000b0 9b 10 b2 bd b0 40 b9 be 01 04 c7 bd 23 2b 85 be
       -0.086945735 -0.36182165 -0.097175606 -0.26009473
0000c0 26 a8 95 be c6 fa bd be a5 b7 ab be c0 ae 24 3d
       -0.2922985 -0.37105387 -0.33538547 0.040205717
0000d0 9e cb 5a 3e 80 66 4b 3e 67 d4 08 3d e0 4d 39 be
       0.21366736 0.1986332 0.033405688 -0.18096113
0000e0 23 d3 bc 3e 74 c8 06 3f c4 e4 0b 3f 91 3d b7 3e
       0.36879835 0.5264962 0.54645944 0.3578916
0000f0 8a b1 3b be bb bc cb 3e 80 06 26 3f 47 56 47 3f
       -0.18329445 0.39792427 0.6485367 0.77866024
000100 3b 11 b7 3e 4b bd 20 be 8a 80 df 3e 10 e1 2f 3f
       0.35755333 -0.1569721 0.43652755 0.68702793
000110 e8 01 21 3f c8 10 8c 3e ff 22 af be 29 4e 4b 3e
       0.62893534 0.27356553 -0.34206387 0.19854034
000120 65 c4 ad 3e b8 fc c3 bd 58 92 53 be a4 ce b9 3c
       0.339389 -0.09569687 -0.20661294 0.022681542
000130 4e 58 b8 3e 1f 77 99 3e ab f0 b2 3e f9 76 70 3e
       0.3600487 0.29973695 0.3494924 0.23482884
000140 97 b5 7d 3e 97 93 c9 be e2 31 60 bf d6 1c 52 3f
       0.24776302 -0.39370415 -0.87576115 0.8207525
000150 fe 44 a7 3d 36 eb 22 3f cf ad 2f bf 51 f2 88 bf
       0.08167456 0.63640153 -0.68624586 -1.0698949
000160 a9 21 94 3f 24 ea f2 3d 3b 94 21 3e 92 e1 f8 be
       1.1572772 0.11861065 0.15779202 -0.48609596
000170 fd a4 1d bf a9 b4 33 3f 09 bc d3 bc f1 5f 6c be
       -0.6157988 0.7019754 -0.025846498 -0.23083474
000180 c5 9f 0e be be b6 4b be ca 82 66 3e 73 f4 09 be
       -0.13928135 -0.1989393 0.2251083 -0.13472156
000190 29 95 d6 bc 54 61 20 bf bf 0d 35 bf d5 bd 98 3d
       -0.026194172 -0.6264851 -0.707241 0.074580826
0001a0 12 86 f3 bd bc 5b 21 3f fa 64 43 bf 01 08 9d bf
       -0.11890806 0.630306 -0.76325953 -1.2268068
0001b0 be c4 42 3f d2 f7 d5 3d 81 bb 80 3f 27 ab 46 bf
       0.76081455 0.104476586 1.0057222 -0.7760491
0001c0 9f 63 be bf ee 9e 84 3f 07 ff 2d 3e f5 53 c6 3e
       -1.4874152 1.0361001 0.16991816 0.3873593
0001d0 eb 67 e0 be 0f ee 59 bf 7c ab 39 3f fb 4c ee bc
       -0.43829283 -0.85128874 0.7252729 -0.029089442
0001e0 8d 08 a0 3e 35 fd 16 be 26 37 74 be 1b 72 da 3e
       0.31256524 -0.14745028 -0.23849162 0.4266518
0001f0 f8 27 15 bd 7a 20 92 be 56 f3 b8 be c8 79 77 3c
       -0.03641507 -0.28540403 -0.3612315 0.0151047185
000200 0f 6c 20 3e 38 21 ad be a4 98 f2 3e 7e 21 58 be
       0.15666221 -0.33814406 0.4738208 -0.21106526
000210 79 d0 1d bf 8c d3 73 3f e0 73 84 bd 18 b5 1c 3f
       -0.6164623 0.9524467 -0.06467414 0.6121383
000220 fe 13 b3 be d9 ed 72 bf af 8e 84 3f 1c 28 c2 bd
       -0.3497619 -0.94894177 1.0356044 -0.094803065
000230 d6 f7 32 3e 3e 6f 95 be 17 fb 12 bf 59 02 52 3f
       0.17477354 -0.29186434 -0.5741438 0.8203483
000240 e2 d4 2e be 14 f3 d2 3c e5 4d b5 3d cb ed a8 bd
       -0.17073396 0.025750674 0.08852748 -0.082484804
000250 17 b7 16 3f cc 78 b8 3d 44 b6 cf 3e cd 2b b2 3e
       0.5887312 0.09007415 0.40568745 0.34799042
000260 2a c4 92 3e 04 9f b6 3e dc 66 b5 3e ed 32 34 3e
       0.28665286 0.35668194 0.35430038 0.17597552
000270 43 8d e1 3e 6a 75 17 3f b6 18 58 3f ed 47 af 3e
       0.44053087 0.59163535 0.84412706 0.34234563
000280 84 99 ae bd 85 a9 6b 3f e4 03 b9 3f 4f 74 9e 3f
       -0.085253745 0.9205554 1.4454312 1.2379245
000290 a0 4e 1e 3e e0 ae 2f bf 02 a2 1e bf 20 b6 77 bf
       0.1545968 -0.68626213 -0.61965954 -0.96762276
0002a0 6d d2 93 bf 3e 6a 3b bf 27 92 2d be 09 b3 c3 be
       -1.1548592 -0.7320899 -0.16950284 -0.3822253
0002b0 51 20 29 bf ec 28 5a bf da bf d1 be 43 01 1b be
       -0.66064936 -0.8521869 -0.40966684 -0.151372
0002c0 65 b1 ce be 6d 4d 2b bf ef 4b 90 be 32 e1 34 be
       -0.40369716 -0.6691502 -0.28182933 -0.1766403
0002d0 cf 3e f4 bd c3 24 62 be 25 e8 ce be 7e 76 58 3d
       -0.11926042 -0.22084336 -0.40411487 0.052847378
0002e0 21 d4 b9 be a9 1d 1b 3d 94 93 5e 3f 63 0c 85 3f
       -0.36294654 0.037870083 0.86943936 1.0394405
0002f0 4b c5 41 3f 6b 82 9a 3d 12 77 b3 be 7a 30 dd be
       0.7569167 0.075444065 -0.3505178 -0.43201047
000300 75 90 84 bf fd da 90 bf 68 da 19 bf 3b 9f e2 3e
       -1.0356585 -1.131683 -0.60098886 0.44262108
000310 f4 d3 89 3d 65 b4 09 be 76 3d 10 3c b7 48 e6 3e
       0.0672988 -0.13447721 0.008803716 0.44977352
000320 11 09 b4 bd c2 bf 74 be 6c cd 1f bf 8e db 53 be
       -0.08790792 -0.23901275 -0.62422824 -0.20689222
000330 32 5e f8 bc fe 6c 1e bd 07 f0 03 be c9 db fc be
       -0.030318353 -0.03867816 -0.12884532 -0.49386433
000340 2d 1c 8a be 90 86 99 be 5a 23 5a 3e f4 e1 76 3f
       -0.2697462 -0.29985476 0.21302548 0.9643853
000350 8e 45 88 3f 2c 87 73 3f dd d0 9a 3e 46 6e 97 be
       1.0646226 0.9512813 0.30237475 -0.2957632
000360 84 cd 4e bd 71 e9 12 bf dd 69 12 bf d2 55 2f be
       -0.050488964 -0.57387453 -0.57192785 -0.17122582
000370 5d 74 05 3e a9 ee 57 3e 8a 3a ac 3e 1f 98 b1 3e
       0.1303267 0.21087135 0.33638412 0.34686372
000380 27 99 37 3f 2c 50 18 3d 48 a3 17 be 75 ce c8 bd
       0.71718067 0.037185833 -0.1480838 -0.098050036
000390 91 7d 62 3e 9a c1 dc 3d ea eb 91 3d 94 e9 7b 3e
       0.22118212 0.10779114 0.07125075 0.24600822
0003a0 28 aa e2 bd 3c 46 63 bd 73 93 7a be 5e 03 11 3e
       -0.11067611 -0.055486903 -0.2447031 0.1416144
0003b0 7b 90 d7 3e e7 90 1f 3e 60 19 4e be a1 3d 8a be
       0.42102417 0.1558262 -0.20126867 -0.27000144
0003c0 0d bf 9f 3e 5c cf 63 3e 40 5f 50 3d 0c e9 84 be
       0.31200448 0.2224707 0.050872087 -0.2595905
0003d0 f7 c2 86 be 01 f1 b6 3c da da 22 be 06 ac 89 3d
       -0.2632062 0.022331716 -0.15903798 0.06722264
0003e0 f6 b6 51 3e 48 04 2e 3e 24 49 2c be 8e 1c 52 be
       0.2047995 0.1699382 -0.16824776 -0.20518705
0003f0 b7 17 f5 bd f3 e5 41 3e 69 41 00 3e cc 95 1c 3e
       -0.11967414 0.18935375 0.12524952 0.15291518

conv1.bias f4 [6]
000000 b3 ae 09 3f 4a 7c 08 bf 52 92 67 bf bb 0b 1f bf
       0.53782195 -0.5331465 -0.9045764 -0.62127274
000010 94 fa af be 26 3f 30 bf
       -0.34370863 -0.68846357

conv2.weight f4 [16, 6, 5, 5]
000000 0b b9 56 be fa 64 b0 be 46 ce 84 be 4e fb cd bd
       -0.20969026 -0.3445204 -0.25938624 -0.10057698
000010 85 82 57 3d 86 31 08 be b2 c7 1d be d0 f1 0c be
       0.052614707 -0.13300142 -0.15408209 -0.13764119
000020 ab c2 f9 bd b5 41 09 3e 54 cf 02 be 5b 1a e1 3c
       -0.12195333 0.13403971 -0.12774402 0.027478388
000030 5d ac 28 3e 2e cb 11 3e 7f c2 c2 3c 35 6a 71 3e
       0.16472001 0.14237663 0.023774384 0.23575671
000040 01 9b 4b 3e 6e 9c 31 3e e7 91 5b bb df 49 46 3d
       0.19883348 0.1734483 -0.0033503713 0.048410293
000050 4a 32 59 3e 5e f2 4e bd 29 a4 74 be 8f 04 07 be
       0.2121059 -0.050524108 -0.23890747 -0.13185333
000060 73 7b 24 3e f1 aa b4 bc 6e 46 a7 be b1 5a 15 be
       0.16062717 -0.022054167 -0.3267092 -0.14585377
000070 34 98 33 be 69 9e c2 be a8 7c ce bc a2 e2 14 be
       -0.1753853 -0.38011482 -0.025205925 -0.14539579
000080 85 06 96 be 7e 7f 60 be a7 c1 49 be 5b aa 9e bd
       -0.2930185 -0.21923634 -0.19702779 -0.077473365
000090 be 14 e0 bd c3 65 6c be b8 a1 8c be eb dc a0 be
       -0.10941456 -0.23085694 -0.27467132 -0.31418547
0000a0 b6 d6 d4 be ce e1 ea be 97 3a 9a be 62 6b 28 bf
       -0.4157006 -0.458754 -0.30122826 -0.65788853
0000b0 df 1c ae be 9c 00 1b bf 54 78 5c bf fb cd 2e bf
       -0.34006402 -0.60547805 -0.86121106 -0.6828305
0000c0 96 38 f2 be 78 cc c5 be c7 06 91 be ee d3 65 bd
       -0.47308797 -0.3863256 -0.28325483 -0.056110315
0000d0 ab 11 82 3d 37 5d 46 bd 6f f3 80 bc b7 6a e4 be
       0.06351026 -0.04842874 -0.015741078 -0.44612667
0000e0 4a b8 0d be cb 38 0b be aa db 1c bd 43 29 9f bd
       -0.13839832 -0.13595884 -0.038295425 -0.07771542
0000f0 ef 3f 0d be e1 ed 26 be c2 3f 89 bc 08 3f 02 3e
       -0.1379392 -0.16301681 -0.016754035 0.12719357
000100 c3 51 2e 3e 23 c0 c0 bd bd e0 0d 3d c9 86 40 3e
       0.17023377 -0.09411647 0.034638155 0.18801416
000110 b6 cf 45 3e 7f ee 7f be 76 11 a9 3e b7 40 da 3e
       0.19317517 -0.24993323 0.33021134 0.42627499
000120 ea f5 e4 3d 7d 92 a6 be 5b 75 c1 be 77 c3 95 3e
       0.11179717 -0.32533637 -0.37784848 0.2925069
000130 8e ef 5d 3e 0f 9d 26 3e b9 88 e0 3d bd d8 df bd
       0.21673414 0.1627085 0.10963578 -0.109300114
000140 7d c3 0e 3e 90 2a 20 be 41 be ee 3e f7 54 9e 3e
       0.1394176 -0.15641236 0.46629527 0.30924198
000150 05 fd 71 3e 4d 23 04 3f 7b 33 df 3d 16 dd 78 3e
       0.23631676 0.51616365 0.10898491 0.24303088
000160 22 d2 d9 3e 17 d8 87 3e ed 23 51 3e 08 0a 51 3e
       0.4254313 0.2653205 0.20423861 0.20413983
000170 90 e0 d3 3e c7 21 a6 3e 79 fa 91 3e 37 4f 3a bc
       0.41382265 0.32447645 0.28511408 -0.011371425
000180 2a a7 2d 3e d3 ca c8 3d 27 65 d4 bd 90 0a 86 bd
       0.169583 0.09804311 -0.10370856 -0.065449834
000190 0b d3 8d be 95 06 8c bd 0c a4 47 3d 3b 81 6b be
       -0.27700076 -0.06837193 0.04874043 -0.22998516
0001a0 9c e9 4a 3d 63 a7 19 3d a6 67 dd bd 26 ef 5d be
       0.049539194 0.037513148 -0.10810785 -0.21673259
0001b0 f3 60 49 3b 5a 2a 59 bc d5 ac 4d 3d dd 7f ac 3d
       0.0030727952 -0.013254726 0.050213654 0.084228255
0001c0 44 e8 18 3d 96 89 33 3d df 0b 41 3e e4 46 a6 3e
       0.03733088 0.043832384 0.18852185 0.3247596
0001d0 0f 5d 29 3e 18 44 b8 3e 62 b1 ec bc 09 2b a0 bd
       0.16539405 0.3598945 -0.028893176 -0.07820708
0001e0 8a 4c 05 3d 4d e6 dd 3c dc e5 48 be 02 05 de be
       0.032543696 0.027087355 -0.19618934 -0.43363196
0001f0 2d ce b6 be 83 87 26 bd f4 95 5e 3b d3 6c 16 3e
       -0.35704175 -0.040656578 0.003396389 0.1468995
000200 87 1d 8a 3b 9c 8c 80 be 1f 2b 5d be 1d 05 90 be
       0.0042149457 -0.25107276 -0.2159848 -0.281289
000210 43 c3 54 be 65 a4 e0 3d e3 e4 6a 3d 29 a8 4a 3e
       -0.20777611 0.10968856 0.05734719 0.1979071
000220 19 df 41 be aa 4a 1a be 25 a1 84 be 95 0f 4e bd
       -0.18932761 -0.15067545 -0.25904194 -0.05030783
000230 98 21 e6 3d 6d 04 17 3e e4 67 30 3d 62 d1 9c bd
       0.11236876 0.14747782 0.043067828 -0.07657124
000240 b6 1d 1b 3e 13 a7 0a bd 69 9e 40 bd 6e e9 03 3e
       0.15148053 -0.03385074 -0.04702607 0.12882015
000250 51 67 40 3e b6 b4 03 3c 36 8b 8a 3e 53 9f 94 3e
       0.18789412 0.00803869 0.27059335 0.29027805
000260 05 6a 12 3d 89 96 13 3d e7 1e dd bd 1a 2f 76 bc
       0.03574564 0.036032233 -0.1079691 -0.015025878
000270 c4 de f1 3c d1 2e 32 bd 93 f1 53 be e7 62 5c be
       0.029525168 -0.04350168 -0.20697622 -0.21522103
000280 fa fc 89 be 3b bf a4 bd 70 15 3a 3e 10 fe 47 3d
       -0.26950818 -0.08044287 0.1817224 0.048826277
000290 3a f4 9c 3d 90 1f 5e be 17 63 aa be e2 1b 7b 3e
       0.0766377 -0.21691728 -0.33278725 0.24522355
0002a0 4a e7 28 3e 17 d7 67 3d 34 bd a2 3e d8 9c 5f be
       0.1649448 0.05660161 0.31784976 -0.21837175
0002b0 0b bc 72 be 83 4d 02 3e 38 40 e7 ba 95 51 25 3d
       -0.23704545 0.12724881 -0.001764304 0.040361006
0002c0 13 70 5a be b0 f0 c8 bd 6e a5 d0 bc 30 89 be 3d
       -0.21331815 -0.098115325 -0.025469508 0.0930351
0002d0 c4 e9 cc 3d 4b 82 f0 bd 5c 3c 82 be 9c c6 10 3e
       0.10005525 -0.117436014 -0.25436676 0.14138263
0002e0 fc 2c 49 be 21 72 61 3e bb a4 b8 3e 6b a2 87 be
       -0.19646066 0.22016193 0.3606318 -0.26491103
0002f0 5c ff c4 bd 2c ed 22 be d3 a1 08 be 24 2a 0b 3c
       -0.096190184 -0.15910786 -0.13342981 0.008493934
000300 f1 d6 18 3f 71 11 e5 be 60 18 de bd d6 c4 96 be
       0.59702975 -0.4473987 -0.10844493 -0.2944705
000310 b9 41 1e bf f2 16 2f bc 94 3e cd 3e d3 7b a0 3d
       -0.61819035 -0.010686623 0.40086806 0.078361176
000320 6f 8d fe 3d 00 5b bf bc 32 91 d7 bc f5 8c 06 3d
       0.1242932 -0.023358822 -0.026314352 0.03284927
000330 1e b0 db 3c 53 d5 d2 3d 14 b9 50 be 4f 61 7c 3d
       0.026817378 0.102945946 -0.20383102 0.06161624
000340 5a a0 fe bc f0 77 ea bd dd 31 12 be 7e 9b 83 3e
       -0.031082321 -0.114486575 -0.14276834 0.2570457
000350 7c 2f a7 3d 25 bb 06 be 92 96 8e bd 47 39 12 bf
       0.08163354 -0.13157327 -0.06962313 -0.5711865
000360 35 6f 34 be bd b7 b7 3e 3b ca 17 3f 25 b3 81 be
       -0.17620547 0.3588237 0.59292954 -0.2533199
000370 03 28 08 bd fc 4c 9a be b2 cf 01 bf 0d 22 57 3d
       -0.033241283 -0.3013686 -0.5070754 0.052522708
000380 c5 c2 e0 3e 4c 2e 19 be d2 68 f4 3d d6 89 78 bd
       0.43898597 -0.14959067 0.119340554 -0.060678326
000390 6f ee e7 bc 3a d0 e9 bd 85 a9 d7 be 94 90 84 be
       -0.028311936 -0.11416669 -0.4212152 -0.25891554
0003a0 08 18 b5 3e 88 fd 23 3d 25 5a e9 3d 3e 51 40 be
       0.35369897 0.040036708 0.11394147 -0.18780991
0003b0 48 25 51 bf 10 d6 92 be a4 31 5d 3d db 5b af 3e
       -0.8169751 -0.28678942 0.05400242 0.34249768
0003c0 09 e8 10 3f 9b f4 1b 3c 50 14 19 bf cc 5a 18 bf
       0.5660406 0.009518768 -0.5979662 -0.59513545
0003d0 d9 d1 8c 3d bb ed 6d 3e 5c 86 67 3e 00 25 ae 3e
       0.06875963 0.23235218 0.22609848 0.34012604
0003e0 9b 1d 9b bd b9 4d 2f be 5f 78 29 3e 22 8c 3c 3c
       -0.07574006 -0.17119493 0.16549824 0.01150802
0003f0 93 5c 9b be e6 72 96 3c a0 aa 08 3d 88 9d c0 3e
       -0.30344066 0.018365335 0.033365846 0.37620187

conv2.bias f4 [16]
000000 30 51 4b 3f 61 87 c3 bf 68 14 c1 be 48 17 cb bf
       0.7942076 -1.5275689 -0.3771088 -1.586648
000010 ff c2 d1 3e c5 2c d9 bf 9e 3c da 3f 23 54 23 bd
       0.40969083 -1.6966788 1.7049749 -0.03987516
000020 23 f9 f1 3f 2f f3 5b 3e b6 fd 0d be 0b 65 a7 3f
       1.8904155 0.21479486 -0.13866314 1.3077711
000030 9e 3c 29 be 3f 4e 8e 3e a3 07 1f 3f 4a 0f 84 3e
       -0.1652703 0.27794072 0.6212103 0.25792915

fc1.weight f4 [120, 400]
000000 8d a2 32 3d e7 83 87 bc e0 87 c5 3a ff 8d 02 be
       0.04361205 -0.016542388 0.0015070401 -0.1274948
000010 d0 d4 45 bd ba bb e4 3d fd 30 6d 3d 57 49 08 3b
       -0.048298657 0.111686185 0.057908047 0.0020795667
000020 24 4b 80 3d 35 2a 91 3d 27 b6 86 bd fa 40 1d be
       0.06264332 0.070881285 -0.065777116 -0.15356818
000030 f7 9a a5 bd ab e2 4d bd bf c4 08 3d d7 e6 40 3c
       -0.08086198 -0.050264996 0.033390757 0.0117737865
000040 f8 15 19 be 89 a0 a3 be 67 22 04 be 82 19 00 be
       -0.14949787 -0.31958416 -0.12903748 -0.1250973
000050 fe 4b c7 bd 3e 90 d9 bc 8f 5e 2e be 69 0c 02 be
       -0.09731291 -0.026558038 -0.17028259 -0.12700047
000060 fd 6e d6 bd 2d a3 88 3c e2 20 bb 3c c3 91 34 3d
       -0.10470388 0.01667937 0.022842828 0.04408432
000070 4e b9 fe 3b ab 06 30 3d 89 0f 5a bd 91 cf 0e 3e
       0.007773555 0.04297511 -0.05323747 0.13946368
000080 cf c5 17 be d4 f9 67 3e 67 ae e4 3c 32 19 d2 bc
       -0.14821552 0.22653896 0.027915193 -0.02564678
000090 75 24 8f 3d d6 cd d8 3d 0e 02 f0 3d df a6 f1 3d
       0.069893755 0.10586135 0.11719142 0.11799406
0000a0 4d 88 1f 3e 43 c6 3f be f4 31 71 bd f1 91 44 3e
       0.15579338 -0.18727975 -0.05888553 0.19196297
0000b0 c6 11 9c 3d bb a4 15 bd cd 19 92 bd 9c cc 6e 3d
       0.076205775 -0.036534052 -0.07133827 0.0583006
0000c0 93 83 14 3e 64 39 cc bc cf 0e cd 3d 7a 7e b8 3d
       0.14503317 -0.02492971 0.1001259 0.090084985
0000d0 bb 05 ba 3a f2 b7 a0 3c 51 19 30 3e 58 49 bd bd
       0.0014192382 0.019618962 0.17197157 -0.09242505
0000e0 cb 93 d4 3d 69 91 ea bc 03 2a b6 b9 4c c4 31 bd
       0.10379752 -0.02863379 -0.00034745046 -0.043400094
0000f0 d9 ff 26 3d 44 8a ba 3e d6 83 be 3d cb e9 96 bd
       0.04077134 0.36433613 0.093024895 -0.07368811
000100 dc 24 fe bc 75 3b 13 be e3 02 d6 3d b6 ea 38 bd
       -0.031023435 -0.1437815 0.10449769 -0.045145713
000110 bb 78 20 bd 50 8d e0 bd cc c7 0c 3e 00 bc ee 3d
       -0.039177638 -0.10964453 0.13748091 0.11656952
000120 5a 53 fd bd bb d4 c5 3d ed e6 f8 bb 72 35 ee bb
       -0.12369414 0.09659716 -0.007595888 -0.007269555
000130 54 63 38 bd 2b 2e 1d bd 3f 6a 25 3d a4 c4 65 3d
       -0.0450166 -0.038374107 0.040384527 0.056095734
000140 40 f9 d7 3a e0 a0 c6 3d e4 ee c5 3d 30 cd 14 3e
       0.001647748 0.09698653 0.096647054 0.14531398
000150 76 ce 92 bd 2f 14 6d bd 24 e9 ec bd d8 33 7b bd
       -0.071682855 -0.057880577 -0.115679055 -0.06132874
000160 3a f2 11 be 17 fa 69 bc 01 a9 22 3e a9 2c 1d 3e
       -0.14252558 -0.0142808175 0.15884782 0.15349068
000170 3d 2f 22 be 62 77 31 3c 84 12 bf bd 12 db 10 be
       -0.15838332 0.010831686 -0.093297035 -0.14146069
000180 75 bb 1e 3e a9 97 22 3e 7f 83 2a 3e 5f f9 40 3e
       0.15501197 0.15878166 0.16651724 0.18845128
000190 23 ea 25 bd 1e b7 e4 bd 24 73 8d be 5f 64 73 bd
       -0.040506493 -0.11167739 -0.27626908 -0.059421893
0001a0 8c 47 2e be 10 bb b7 3d d7 ae 43 bd 1e 3d b4 bd
       -0.1701948 0.08971226 -0.047774162 -0.0880072
0001b0 e3 97 a9 bd ab 19 1e be 7a db 4b 3d 67 35 20 be
       -0.08280923 -0.15439479 0.049769856 -0.15645371
0001c0 78 40 dc 3c f9 87 30 3e 8a 38 4c 3e b2 58 24 3b
       0.02688621 0.1723937 0.19943443 0.002507728
0001d0 56 fe 19 be d1 9c 5c be 55 94 bc 3c d4 a7 44 be
       -0.15038428 -0.21544196 0.023019949 -0.19204646
0001e0 b0 59 a9 3e 1f 53 35 3b 62 f8 2c 3c 1b c6 d3 3d
       0.3307624 0.0027667952 0.010557266 0.1034052
0001f0 eb 28 84 be 29 f2 3e 3d 7e bc ac 3c c7 06 0d bd
       -0.25812468 0.04661766 0.021085974 -0.03443029
000200 70 33 05 3e a7 93 7a 3c 0b df 8b bd 0c 52 1b be
       0.13007903 0.015293992 -0.068296514 -0.15168017
000210 02 8d b5 3c 6a 38 86 bd 4a 1e f8 bd 51 f3 d3 bc
       0.022161964 -0.06553729 -0.12115152 -0.025872858
000220 bb 43 09 be 98 e0 e3 3d 79 e7 f7 bd be ad bc 3d
       -0.13404743 0.11126822 -0.12104697 0.09212826
000230 32 49 94 bd 88 83 05 3e ef 00 2c 3d 1e 52 fd 3d
       -0.072405234 0.13038456 0.041993078 0.12369178
000240 40 71 9d 3e 66 11 5c bd f4 8c 67 3d fc e9 7a bd
       0.30750465 -0.05372753 0.056530908 -0.0612583
000250 c7 18 80 bd 15 ea 02 3d d3 05 0b 3e 07 ec 87 bd
       -0.06254726 0.03196152 0.1357644 -0.066368155
000260 f4 fe 15 3d 1d 38 01 3e 1b fd 6d 3d 2b 25 e9 bd
       0.036620095 0.12619062 0.05810271 -0.11384042
000270 75 44 81 be cd 1c c2 bd 6c c9 dd bd 7a e1 3a be
       -0.2524754 -0.094781496 -0.10829434 -0.18250075
000280 53 c2 91 be e9 b6 af be 58 af 93 be cd 68 80 bd
       -0.2846857 -0.34319237 -0.28844714 -0.06269989
000290 da 07 17 be af f2 68 3d 60 7f 37 3d 45 0c e2 3d
       -0.14749089 0.056872066 0.04479921 0.110374965
0002a0 b0 4a d7 3d ed db fc bb f9 0c 0f 3d 77 3d 0c 3e
       0.105122924 -0.007716647 0.03492448 0.13695322
0002b0 bb c8 8f 3d 05 a1 79 be 2e 43 8b bc f9 ff 3f 3e
       0.07020708 -0.2437783 -0.016999807 0.1874999
0002c0 60 a5 85 3e 44 8c a6 3e ba ae 6b bd 2f 3f d7 bd
       0.26102734 0.3252889 -0.05753968 -0.10510098
0002d0 e5 18 f7 bd c1 53 08 3c 0c d7 6f bd be 73 44 be
       -0.12065295 0.00832075 -0.058554694 -0.19184777
0002e0 ab e2 e8 bc 09 f1 e4 3d a4 5d 31 3d 3c 63 23 3e
       -0.028428396 0.11178786 0.043302193 0.15955824
0002f0 50 ad 2d be 67 50 20 be c2 d0 03 bd a9 0a c7 bd
       -0.16960645 -0.15655671 -0.03218151 -0.0971883
000300 3e 3a 29 3d 01 63 2e bd a5 95 42 bd 67 1c aa 3d
       0.04131531 -0.042574886 -0.047505993 0.083061986
000310 fe c9 b3 3d f8 75 1f 3d 52 0a 26 3e 8a 70 98 3c
       0.08778761 0.038930863 0.16214874 0.01860835
000320 40 46 6a bc cd bb 64 bd 05 f0 f9 bd ac 66 1b be
       -0.0142989755 -0.055843163 -0.12203983 -0.15175885
000330 4a 6e 35 bd 5f ba d6 3c b3 ee a1 3d 9e fd c5 bd
       -0.044294633 0.026211916 0.079068564 -0.09667514
000340 7a 29 77 be 1d a5 e8 bd cc b8 92 bc 1d 41 60 3d
       -0.24136916 -0.11359618 -0.017910384 0.054749597
000350 07 04 bc bd 14 ec 09 be da 6d 71 be 1b 8a 3f be
       -0.09180456 -0.13468963 -0.23577061 -0.18705027
000360 4c 1d 8e bb b3 36 34 be 02 0f 02 be 31 4f 9c be
       -0.0043369886 -0.17598991 -0.12701038 -0.30529168
000370 3c 37 cc bd b7 59 23 be 71 8c 0c be a9 cf ba bd
       -0.099714726 -0.15952192 -0.13725449 -0.09121639
000380 f6 9a 03 be a8 2e 9d bd 47 cf 18 bd a6 a0 cb 3d
       -0.12852082 -0.076749146 -0.03730705 0.09942751
000390 fe b1 0b 3e a3 c2 0e be 45 f4 23 3d 4d 0f 86 be
       0.13642117 -0.13941436 0.040027875 -0.2618355
0003a0 9a 19 f4 bd dd ea 75 3c 10 71 56 bd 22 8b da bd
       -0.119189456 0.015009609 -0.05235392 -0.10671069
0003b0 65 35 27 be 48 4b 36 be da bb 3c be 42 07 b2 bd
       -0.16328962 -0.17802155 -0.18431035 -0.086927906
0003c0 26 4b 68 3d ab 07 b9 bd 75 e4 55 be 1f 02 a2 3d
       0.056712292 -0.09034666 -0.2088793 0.07910561
0003d0 50 c7 aa bd e6 3e 27 3d e2 9a ac 3e cf e6 8c 3d
       -0.08338797 0.04083147 0.33711916 0.06879961
0003e0 66 77 9e 3d 6d 09 6a 3e 00 10 32 be b8 27 fe bb
       0.07737617 0.22855158 -0.17388916 -0.0077561997
0003f0 9e 02 6d 3c 1b 55 9c bd de 6b 40 3e 4a 32 e1 bd
       0.014465956 -0.0763342 0.18791148 -0.1099592

fc1.bias f4 [120]
000000 02 93 b4 be b2 c2 26 3e 91 12 18 3e 32 b9 11 3e
       -0.35268408 0.16285208 0.14850833 0.14230803
000010 54 2d 00 3d b3 a7 1b bd 13 3a 57 be 7a c1 16 3e
       0.03129323 -0.038001727 -0.21018247 0.14722243
000020 77 a4 4c 3e e1 23 98 bd b6 6b d8 bc 2c de aa 3e
       0.19984613 -0.07428718 -0.026418548 0.3337263
000030 e5 54 f9 3d b8 5f da bd 0c 8d 24 3d 01 50 a2 3e
       0.121743955 -0.10662788 0.040173575 0.31701663
000040 ff c6 1b bc 4e 5b 22 bd 33 3b d4 bd c2 34 d6 3e
       -0.009507894 -0.039637856 -0.10362854 0.41837126
000050 d7 ca 04 3e 59 7e 04 be 59 b8 8b 3e b7 ed 30 be
       0.12968002 -0.12938823 0.27289084 -0.17278181
000060 44 18 99 3d f4 72 6b bd 68 ff c7 3d e4 37 02 3d
       0.074753314 -0.057482675 0.09765512 0.031791583
000070 7d b1 fc bd 2e 3f 82 bd d9 2d b4 3e 5a 83 7c bd
       -0.12338541 -0.06359707 0.3519123 -0.061648704
000080 e4 75 a2 3d 48 b1 70 3d 5e f1 63 3e 2a a8 95 be
       0.07932642 0.05876282 0.22260043 -0.29229861
000090 46 b1 40 3d 57 45 07 bc d4 eb 2b bc d7 e0 86 be
       0.04704406 -0.008256278 -0.0104932375 -0.26343414
0000a0 6a 8d bb 3e 79 67 48 bd b0 13 a8 bd 00 9e 30 3e
       0.36631328 -0.048926804 -0.0820688 0.17247772
0000b0 52 d7 76 3e 75 c3 68 3d 1c ea 27 be 38 31 14 3b
       0.24105576 0.056827027 -0.163979 0.0022612344
0000c0 9e ce b2 3e d9 9d 9f bd ac 1f 3b bd bd da 06 bd
       0.3492326 -0.07793779 -0.0456845 -0.03292345
0000d0 43 93 7c 3e b6 cf 52 3d 44 4f 0d 3e 6e f2 3d 3b
       0.24665551 0.05146762 0.13799769 0.002898361
0000e0 40 27 03 3d c3 36 d5 be 0e 22 84 3e 10 3d 7b be
       0.032019854 -0.41643342 0.25807232 -0.24535012
0000f0 11 8c 2d be 0e 8a 88 bc bb 2b d0 bc 29 11 fe 3d
       -0.16947962 -0.016667392 -0.025411477 0.12405617
000100 e3 14 14 bd e8 ac a0 3c ae e1 bb 3e cb 28 ee 3b
       -0.03615273 0.019613698 0.36695617 0.0072680465
000110 d7 90 a2 be 23 2c f9 3c 6b 2f 63 bd d4 02 19 3e
       -0.3175113 0.030416554 -0.055465143 0.14942485
000120 2a b6 48 be 60 53 09 bd a6 ac 5c bc 82 9f fa 3d
       -0.1960074 -0.03352678 -0.013468897 0.12237455
000130 27 15 2e 3e 6c d4 35 be 6c d1 51 be c9 cd c6 bd
       0.17000256 -0.17756814 -0.20490044 -0.09707219
000140 97 de 45 3e 72 ff bf 3d b6 29 e9 bd e2 2d 47 be
       0.19323193 0.09374894 -0.11384909 -0.19451097
000150 db 42 c4 3d 97 b7 94 3b 6c 1e 14 3d f2 63 8a 3d
       0.09583064 0.004538487 0.036161825 0.06757344
000160 17 6e bd 3e 1b 9e f0 bd 88 33 05 3e 3a 59 d8 3e
       0.36998054 -0.11748906 0.13007939 0.42255574
000170 b4 6c ce 3d 29 28 0d 3f 87 52 ea 3e 6a 6e 49 3c
       0.10079327 0.55139405 0.45766088 0.012294391
000180 27 26 90 bc 84 92 55 bd 31 8b ea bd fb 3e 8c 3d
       -0.017596317 -0.05214168 -0.1145233 0.0684795
000190 03 58 94 3d d4 1f d8 bd 2e ff e3 bd 95 dc 0b 3e
       0.072433494 -0.10552946 -0.11132656 0.13658364
0001a0 86 9d 6b be 33 23 4f 3e 6d 7a d0 bd ec 7f 07 3e
       -0.23009309 0.20228271 -0.10179601 0.13232392
0001b0 4e 5a 2a 3e b8 54 a7 3d 4b 15 70 be eb c4 af 3d
       0.16636011 0.08170456 -0.23445623 0.08582481
0001c0 b4 a7 8c 3c 3f 6a 38 bd a5 7d 99 3d 46 5e 88 bd
       0.01716981 -0.0450232 0.07494668 -0.06658606
0001d0 4b 27 b4 bd 9e 0a 02 3d b5 18 97 3e e3 78 a4 3c
       -0.08796557 0.031748407 0.29511037 0.020077175

fc2.weight f4 [84, 120]
000000 da db 0d 3d 87 d4 e3 bd 73 27 33 be dd 0d c1 3c
       0.034633495 -0.11124521 -0.17495517 0.02356618
000010 cf 1e 0c be dc 6c 9b 3d 47 07 ad bd aa 30 aa be
       -0.13683628 0.07589123 -0.08448654 -0.33240253
000020 90 3e 23 be 3d 00 65 3e 6a 3d b5 3c 69 8c 1a 3e
       -0.15941834 0.22363372 0.022124011 0.15092625
000030 df 21 42 bc 7b c1 4d 3e 39 20 7d bd c7 ec ad bc
       -0.011848896 0.20093338 -0.061798308 -0.021231068
000040 34 45 36 be d8 e7 7c bd b5 a5 32 be 6e 19 82 be
       -0.17799836 -0.06174454 -0.17446025 -0.25410026
000050 32 39 73 3d 66 a9 f2 bc 4a 73 3a be 3a 08 41 be
       0.059380718 -0.029621791 -0.18208042 -0.18850794
000060 7d 50 17 3e 87 6f 52 3e e7 40 84 3d 14 21 7e bd
       0.14776798 0.20550357 0.06457692 -0.062043265
000070 e7 d5 0d 3e 89 35 1a be 01 86 5f 3e 8e 73 c7 3d
       0.13851129 -0.15059485 0.21828462 0.09738837
000080 7f cc a2 bd c8 79 a1 be 46 0b ed bc 10 c2 0d bd
       -0.07949161 -0.31538224 -0.02893604 -0.0346089
000090 c3 6e 39 be 5f fe a1 bd 83 c2 7c bd cc d2 d0 bd
       -0.18108658 -0.079098456 -0.06170894 -0.10196456
0000a0 e0 b2 0a 3e 85 62 24 be 43 3f 5c 3d 73 6d 56 3e
       0.13544798 -0.16053207 0.05377127 0.20940189
0000b0 d7 94 d6 3c 43 88 2e 3d 20 2b cd 3d 3e a6 1f be
       0.02619402 0.042610418 0.10017991 -0.1559076
0000c0 39 ab 8b 3d 2b 70 57 3b 3a 2d 9c 3c 9b 21 39 bd
       0.068197675 0.0032873254 0.019064534 -0.045198064
0000d0 2f 39 77 3e 9e ed bb bd 43 79 d1 bc 56 a5 56 3d
       0.24142908 -0.09176181 -0.025570517 0.05240377
0000e0 76 18 82 be e5 bc c2 3b 42 30 a5 bd 8e 9a cd bd
       -0.25409287 0.005942928 -0.08065845 -0.100392446
0000f0 a3 e0 b3 3d 64 cb 23 3d 8b eb 9b bc b0 36 6b be
       0.087830804 0.03998889 -0.019033214 -0.2297008
000100 b7 b8 05 bd c3 5a 2f be 0d f5 3f be 76 d9 43 be
       -0.03264686 -0.17124467 -0.18745823 -0.19125924
000110 fa ff 61 3e 82 fa c1 bd f1 35 e6 3d b7 77 a2 3d
       0.22070304 -0.09471609 0.11240757 0.0793299
000120 f1 cc 12 be bb 59 c3 3d 51 e7 0e be d8 12 e6 bd
       -0.14335991 0.09538599 -0.13955428 -0.11234063
000130 c9 a0 92 3d d9 3b 94 be d4 5d 26 3d f8 62 70 be
       0.071595736 -0.2895191 0.040616825 -0.23475254
000140 ca 60 10 be 4e 4b 09 be 46 e8 d1 be 7c 39 0d 3d
       -0.14099422 -0.13407633 -0.40997523 0.03447865
000150 67 dd c7 3c 86 a7 d6 bd e4 75 08 be 22 f1 46 be
       0.024397565 -0.10481171 -0.13326222 -0.19427922
000160 fa 61 30 bd 64 41 91 3c 64 bf 91 be 1b 25 76 be
       -0.043062188 0.017731376 -0.28466332 -0.24037592
000170 2c 8d 34 bd f9 76 15 be a9 7a 48 be 75 8a c1 bd
       -0.044079944 -0.14596166 -0.19578041 -0.09450237
000180 03 18 36 3d 7e 69 d9 bd bc fd cd bd 8e bc 2e bd
       0.044456493 -0.10615824 -0.100581616 -0.04266029
000190 8e a8 37 bc c0 b1 d3 3d 84 c4 0d bc 9a f5 f3 bd
       -0.01120962 0.103366375 -0.00865281 -0.11912079
0001a0 70 0e ad bd d1 fc 9b 3d d8 cd c6 3e 79 61 e4 3b
       -0.08450019 0.0761658 0.3882892 0.0069696275
0001b0 a6 f2 04 be 0c fa 59 3d 9b bb c1 3d 00 19 3a 3e
       -0.12983188 0.05321698 0.09459611 0.18173599
0001c0 f9 d0 11 bd 86 0a 9e be 4f 2c d2 3b 84 1d ce bc
       -0.035599682 -0.30867404 0.0064139734 -0.025160559
0001d0 67 51 27 3e 84 e0 a9 bd 5a 20 0b be ea 7a bb bd
       0.16339646 -0.08294776 -0.1358656 -0.09154303
0001e0 1f d1 30 be 45 8a 4b be 25 2c 03 bb 6f 12 1a be
       -0.17267273 -0.19876964 -0.0020015326 -0.15046094
0001f0 b5 d1 b3 bd 65 8b 00 3e 23 0e 00 3e d5 6f 06 3b
       -0.08780233 0.12553175 0.12505393 0.0020513434
000200 9e 89 df bd 86 17 b3 bc 22 ae 3c 3e c1 30 80 3d
       -0.1091492 -0.021861803 0.18425801 0.06259299
000210 6f 10 88 be 8e 0b 80 bd 9a 3a 27 3d 02 4b 9f be
       -0.26575038 -0.06252204 0.04082737 -0.31111914
000220 4f 04 3d 3d 31 6a 60 be 85 85 86 bd 71 f5 1d be
       0.046146687 -0.21915509 -0.065684356 -0.1542566
000230 a4 b9 bc bd 69 b8 ee bd 5d 07 0b be 78 89 27 be
       -0.09215096 -0.11656267 -0.13577028 -0.16361034
000240 b2 02 28 be 37 09 54 3d a2 39 20 be 94 19 bc 3d
       -0.16407278 0.0517666 -0.15646985 0.09184566
000250 8a e4 07 bd e9 41 eb 3a a4 12 e6 bd a0 71 b3 3d
       -0.033176936 0.001794872 -0.11234024 0.087619066
000260 b2 0b 30 be 33 c7 92 3d 65 71 b3 3d b9 95 e3 bb
       -0.17191961 0.071669005 0.08761863 -0.0069453386
000270 2b 53 20 bd 79 c3 0a 3d 54 40 9c 3c 7b 71 59 bd
       -0.039141815 0.033877824 0.019073643 -0.05308674
000280 43 cf 2b 3e f2 58 0e be cc 7e 80 bd f4 4d c1 be
       0.16778283 -0.13901117 -0.062741846 -0.37754786
000290 98 09 0e be a1 db 41 be b4 52 4b 3d 36 5f ec 3d
       -0.13870847 -0.18931438 0.04963942 0.115415975
0002a0 20 f1 23 3e 5e 22 46 be be 4f 81 3d c9 dc 72 bd
       0.1600995 -0.19349048 0.06314038 -0.05929259
0002b0 46 a2 9c bd 18 ff 42 be 19 b3 33 be f4 57 b6 3d
       -0.07648139 -0.19042623 -0.17548789 0.089034945
0002c0 cb c2 7c bd bc a0 0c 3e 93 32 92 3d 6e a6 4e 3e
       -0.061709207 0.1373319 0.071385525 0.20180675
0002d0 33 52 83 3d 2b eb 61 bc cf 4d ab 3d ed 2e ab 3d
       0.06412163 -0.013788979 0.0836445 0.0835856
0002e0 a8 b9 af be 37 bf 34 be 4c 21 75 be b2 04 5c 3e
       -0.34321332 -0.17651068 -0.23938483 0.21486166
0002f0 83 43 31 bb 8e 12 c6 bc bd e5 5d be 66 82 94 be
       -0.0027048297 -0.02417877 -0.2166967 -0.29005736
000300 f6 0d a7 be bd 3d 27 3d d4 31 1c be a0 e2 05 bd
       -0.3262784 0.040830363 -0.15253383 -0.03268683
000310 54 8e be 3d 91 13 21 be b4 91 75 3d 90 9e 5d be
       0.09304491 -0.1573012 0.059953406 -0.21642518
000320 4e a6 7f bd 24 71 8e bd f1 02 2a bd 97 a2 20 3e
       -0.06241446 -0.069551736 -0.04150671 0.15687023
000330 79 db 93 be d0 63 83 3d e7 7a 3d 3e d2 5d dc bd
       -0.28878382 0.06415522 0.18503915 -0.10760082
000340 b5 e2 82 be 2f a7 91 3e bf 72 53 bd 25 94 4c be
       -0.2556359 0.28447863 -0.051623102 -0.19978388
000350 88 79 43 be af 80 bc be 55 de 57 be 23 dd d4 3b
       -0.19089329 -0.36816928 -0.21080907 0.006496088
000360 52 d1 5c 3d 49 95 20 3c 3d 49 c0 bd 7f 95 c2 bd
       0.05391056 0.009801217 -0.09388969 -0.0950117
000370 31 60 4c 3e 9d cf 52 bd 09 7a 0a 3e b7 62 45 3d
       0.19958569 -0.051467527 0.13523115 0.048189845
000380 f1 da 0c 3e 49 ac cf 3d 2b c7 e0 bc fe ce 33 3d
       0.13755395 0.10140283 -0.02743872 0.043898575
000390 a5 6c 62 be e5 61 b9 3b 02 4b 27 be 2a 13 b0 3b
       -0.22111757 0.005657422 -0.16337207 0.0053733783
0003a0 d2 35 14 be 6d 0f 2a bd 0b 1e 4d bd 89 63 b8 bd
       -0.14473656 -0.041518617 -0.05007748 -0.0900336
0003b0 bd fd 45 bc e6 13 cb 3c 59 6d b1 3c 20 c7 f4 3d
       -0.012084422 0.024789762 0.021658586 0.119520426
0003c0 c2 e6 8b 3d 69 10 9e 3d 49 15 a9 bd f4 16 56 3e
       0.06831123 0.07717974 -0.08256013 0.20907193
0003d0 8e 12 41 be f2 f6 a1 3d df f3 ff bc ed 6b 0d 3e
       -0.18854734 0.07908429 -0.031244216 0.13810702
0003e0 68 8f 83 be 8e b5 1a 3e e4 3c 30 3e 6c ba 4c be
       -0.25695348 0.1510832 0.17210728 -0.1999299
0003f0 9d be 87 3e ba 1c d1 3c ba 8e 6d bd 97 56 46 be
       0.26512614 0.025526393 -0.057997443 -0.19368969

fc2.bias f4 [84]
000000 fe 0b 3a 3e 0e 4f 05 bc e7 98 02 3e f5 3b 55 bd
       0.18168637 -0.008136524 0.1275364 -0.052059133
000010 b8 a6 33 3e 38 f0 32 3f 76 95 66 3f ab e7 8b bd
       0.17544067 0.69897795 0.9007181 -0.068312965
000020 8d 17 c6 bd cf b6 10 3f 4a df 57 3e 35 d4 3b 3e
       -0.09672461 0.56528944 0.21081272 0.1834267
000030 41 ed 96 3e 60 5c 09 3f 00 7a ed 3d c7 44 38 bd
       0.29477885 0.5365658 0.11595535 -0.044987466
000040 a0 10 26 3f f7 7a 61 3e 03 6d 22 3e 80 79 10 be
       0.6486912 0.22019564 0.15861897 -0.14108849
000050 d1 66 9c bd 87 fd 20 be 2b 3b 64 3d be ab 00 3f
       -0.07636798 -0.15721713 0.05572049 0.5026206
000060 71 b7 0e 3e 3a 64 2e be 94 0b e6 3d 07 eb 9e bd
       0.13937165 -0.17030421 0.11232677 -0.07759672
000070 3a b1 06 be fa 6b b0 bc 2e f0 1b 3f a5 3c 9c bd
       -0.13153544 -0.021535862 0.6091336 -0.076287545
000080 22 e4 49 bd b5 4f 71 bc 85 cc 31 3c 6c d4 0e be
       -0.04928983 -0.014728476 0.010851984 -0.1394822
000090 cb 66 dd 3e 70 c5 2e 3f 88 bf b2 3d fa 67 b2 3f
       0.43242487 0.68270016 0.08727938 1.3937981
0000a0 16 62 8b 3e 88 d6 36 3d 3d 4a 8e bd f1 ce 99 3f
       0.2722327 0.044638187 -0.069477536 1.2016279
0000b0 70 eb 70 38 06 64 04 3d 23 ab 1f bb db ac 41 be
       5.7439727e-05 0.032321952 -0.002436348 -0.18913595
0000c0 61 00 92 bd 61 b8 d8 3e 2d 0f a0 3e c0 e1 90 3e
       -0.071289785 0.4232817 0.31261578 0.28297234
0000d0 1e c4 8a 3e ae fb 01 3f 46 64 33 3f 28 ac 2a 3f
       0.2710275 0.5077466 0.7007488 0.6666894
0000e0 87 b9 c6 3e 29 00 18 3e d4 a8 3a 3f 3f 94 a4 3a
       0.3881342 0.14843811 0.7291386 0.0012556388
0000f0 6f 9f 9a 3d 2d 6b 2e be 4a 54 9d ba f8 3f e4 3e
       0.07549941 -0.17033072 -0.001200327 0.44580054
000100 3b 43 8b 3d 0e 7a 30 bd 87 b3 32 3e 8d 9c e4 bd
       0.067999326 -0.04308515 0.17451297 -0.11162672
000110 cf 9e c6 3a 87 ff 22 bd d2 99 b2 3e bb d4 1f 3f
       0.001515353 -0.03979447 0.3488298 0.62433976
000120 a0 2b cb 3e 83 92 97 3e de 0e d4 3e e9 b0 31 be
       0.3968172 0.29603967 0.41417593 -0.17352642
000130 1d 41 0b 3d 80 6f 32 3e 0a 66 27 3d ca 6e 3e 3e
       0.033997644 0.17425346 0.040868796 0.1859695
000140 7c 71 04 bd af b0 c9 3e 77 2d 03 bd ab db 94 3e
       -0.03233479 0.3939261 -0.03202578 0.29073843

fc3.weight f4 [10, 84]
000000 3d 4d 1b be 38 81 a0 3d cd 04 49 3d 1e ae 61 3e
       -0.15166183 0.078371465 0.049076844 0.22039077
000010 a6 43 fc 3d 7e 9a 05 be 35 6d 8c be 31 b6 77 3e
       0.123175904 -0.13047215 -0.27427068 0.24190594
000020 ae 22 7c 3c a9 64 f3 3d 65 5b b5 bd c7 47 43 bc
       0.015389128 0.11884434 -0.08855323 -0.0119189685
000030 92 18 30 be 35 84 16 3e 77 18 35 be f2 6f 8b 3e
       -0.17196873 0.1469887 -0.17685114 0.27233845
000040 91 c2 69 bd 13 b1 d9 bd 50 43 f4 3d 1b f8 af bc
       -0.05707032 -0.10629477 0.11926901 -0.02148061
000050 f2 38 65 3e ca 67 21 3e 32 58 b6 bd 18 2f 35 be
       0.22385004 0.15762249 -0.08903541 -0.17693746
000060 94 88 70 3e ed 93 75 3e b6 f4 67 3e 60 b5 02 be
       0.234896 0.2398221 0.22651944 -0.12764502
000070 43 bf b0 bc c4 8d 3c 3d 90 76 ef bd 54 1c bd 3b
       -0.021575576 0.046033636 -0.11692536 0.0057711992
000080 d9 5d 48 be 63 75 16 3e 46 86 88 3e e7 f6 26 bd
       -0.1956705 0.14693217 0.26664943 -0.04076281
000090 0d f5 12 3e 46 11 2e 3d 70 20 2c 3d 59 4e ab be
       0.14351292 0.042496942 0.042023122 -0.33458212
0000a0 ea 80 12 be 2c c6 1b 3d c1 12 89 3e c1 d8 17 3e
       -0.1430699 0.03803079 0.2677212 0.14828779
0000b0 ac 18 4d bc 6b 5b a6 3d 98 e7 15 3e 8c b7 33 3d
       -0.012518089 0.08122905 0.14639127 0.043876216
0000c0 71 95 79 bc 4f 9d 31 3e 0c 5b 1f 3d 74 f3 1f 3e
       -0.0152333835 0.17345165 0.03890519 0.15620214
0000d0 64 0e 3b be e2 9e 9b 3d d4 d1 14 be 63 44 d7 bd
       -0.18267208 0.07598664 -0.14533168 -0.105110906
0000e0 76 ef 67 3d c1 77 b9 3d 98 c1 d3 3d de 44 91 be
       0.056624852 0.09056044 0.103396595 -0.28372854
0000f0 ae 9f 0b 3e f7 37 d8 3d db 8e df 3b cd 39 71 3e
       0.13635132 0.105575494 0.0068224496 0.23557205
000100 1d 6a e1 3c 00 43 0f be 1b c7 bb 3d ce 5a 88 3e
       0.027516419 -0.13990402 0.09168836 0.26631778
000110 58 c9 1b 3d 42 93 94 bd 45 7d 2d bd 6e e0 5d be
       0.038033813 -0.0725465 -0.042355794 -0.21667644
000120 31 db 3e bd a9 25 05 3e dc 7c c2 bd f2 b7 0d 3e
       -0.046595756 0.13002647 -0.09496471 0.13839701
000130 6b 2e 98 be e5 c5 81 be 26 99 11 3e 26 6f 08 3e
       -0.29722914 -0.25346294 0.14218578 0.1332365
000140 4a db 4d 3e b7 60 19 bd fb 00 9a bd bb f5 f9 bd
       0.20103183 -0.03744575 -0.07519718 -0.122050725
000150 4c c6 08 be 98 fb fe bd 0b 91 b3 3d 28 ff d1 bd
       -0.13356894 -0.124503314 0.08767899 -0.10253745
000160 46 2b fa 3b cf 3b 5b bd e9 11 37 be cf cb 2a be
       0.007634553 -0.053523835 -0.17877926 -0.1667931
000170 df e2 57 3e 53 04 e6 3d 40 80 26 3e 58 a3 6a 3e
       0.21082638 0.112312935 0.16259861 0.22913873
000180 2b a4 10 3e 87 1a 4f be 35 ae 3f 3e 6b b9 d8 bb
       0.14125125 -0.20224963 0.18718798 -0.0066139004
000190 a7 3e 2b be ba b4 9d 3d 93 78 f7 3d 37 fb 38 3e
       -0.16723119 0.077004865 0.120835446 0.18064581
0001a0 71 9b 4f 3e 42 79 11 3e 03 ac 70 3e f1 73 2d bd
       0.2027414 0.14206412 0.23503117 -0.0423469
0001b0 bc 31 2d 3e 55 96 14 3d 48 6b a6 bd 9b ce ee bd
       0.16913503 0.03627618 -0.08125931 -0.116605006
0001c0 09 db c6 bd 96 0d 27 bc e3 25 ea bc a1 8e 5c 3d
       -0.097097464 -0.01019611 -0.028582519 0.05384696
0001d0 0a c4 2c 3e af 8a 31 be 1d f1 5a bd cd 6e 2a be
       0.16871658 -0.1733806 -0.0534526 -0.1664383
0001e0 ff 13 85 3e 99 d3 71 3d f4 52 00 bc ab 6a 4a be
       0.25991818 0.059039686 -0.007832278 -0.19767253
0001f0 00 4f 98 3d ce 1d 06 bc 62 7b 35 3e 67 e6 f3 bd
       0.07436943 -0.008185817 0.17722848 -0.1190918
000200 39 b8 9e 3e 98 e8 1c be 61 b6 26 be 84 2f 9f 3d
       0.30999926 -0.15323102 -0.1628051 0.07772735
000210 25 28 ba 3d 94 bb b8 be 8c f7 4d 3e cc 7a 31 be
       0.09089688 -0.3608061 0.20113963 -0.17332
000220 34 08 1e be 2a 08 48 be f8 2f 14 3e 58 24 fa 3d
       -0.15432817 -0.19534364 0.14471424 0.12213963
000230 99 9a 50 be 24 c5 aa 3b 1b e8 21 be d7 be 07 3e
       -0.20371474 0.0052114893 -0.15811197 0.13256393
000240 30 21 89 3e 36 11 ce bd 7c c6 e9 3c 04 5f 22 3e
       0.26783133 -0.100618765 0.028537028 0.15856558
000250 74 9c 00 bd ec d5 32 3e 24 e2 02 be 0b ba 55 3d
       -0.031399205 0.17464417 -0.12781578 0.052179378
000260 9b ab 87 3e 6e 29 5f 3e 09 5f 03 be 3d 2b a8 bd
       0.26498112 0.21793148 -0.12829222 -0.08211372
000270 cf 32 40 be 71 fb bf be f8 da ae 3e 03 f5 26 3e
       -0.18769382 -0.37496522 0.34151435 0.16304402
000280 3f 9c a2 3d a2 0d 2e bd 4d 77 7e be c2 87 ae 3c
       0.07939958 -0.04249347 -0.24850197 0.021304969
000290 75 6d db bd e9 9d cd bd 92 0b 84 be d5 02 4e 3e
       -0.10714237 -0.100398846 -0.25790077 0.20118268
0002a0 59 84 66 bc 74 f9 ba bc 82 9b 04 be 14 b7 5c 3e
       -0.01406964 -0.022824027 -0.12949947 0.21554214
0002b0 e9 21 15 3d 81 a7 e2 bc de cd 12 3e 45 1c 3d 3d
       0.036409292 -0.027667763 0.14336345 0.046169538
0002c0 6a 7f eb 3c b3 cd 8d bd 09 ca 2b 3e 81 ed 57 bd
       0.02874728 -0.06924 0.16776289 -0.052716736
0002d0 b5 d4 66 be 51 aa 63 3d 97 b8 06 be 77 4a 5f 3e
       -0.22542079 0.05558235 -0.13156353 0.2180575
0002e0 cf d4 4f 3d 31 8b b4 3d 46 22 21 3d 4e be 64 3d
       0.05074006 0.08815611 0.039339326 0.05584555
0002f0 a0 e2 7a be 7f 3f b5 3d 87 90 39 be 6e b6 09 3c
       -0.24500513 0.088500015 -0.18121539 0.008405311
000300 b7 60 8d bd ac 42 8d 3d 20 11 a3 3d ee 2c 33 be
       -0.069032125 0.06897482 0.07962251 -0.17497608
000310 71 bb 37 3e 87 9b 3c 3d 19 4d 33 3e f8 92 29 bb
       0.17942597 0.04604676 0.17509879 -0.0025874954
000320 7d 1a 0f 3e e8 36 02 bc ea 2e c6 3c b5 70 65 3e
       0.13974948 -0.007947661 0.024192292 0.22406276
000330 69 4b 64 bc 04 95 33 3e 09 1f 6a be f0 c4 3b 3e
       -0.013933995 0.17537314 -0.22863401 0.18336844
000340 d2 7c a6 bd 83 22 8e 3d 01 6c 2c be 95 f2 7f 3d
       -0.08129276 0.06940176 -0.16838075 0.062487204
000350 61 c8 8c bd 73 72 e6 3d 51 ed 3e 3d ba df af 3d
       -0.06874157 0.11252298 0.04661304 0.08587594
000360 51 72 7e be d1 6e a7 3e 7b 89 84 be 58 80 59 3e
       -0.24848296 0.32701734 -0.2588614 0.21240366
000370 1f f0 0b be 37 42 83 be d6 f3 b7 bd 72 3f 86 bd
       -0.13665818 -0.25636455 -0.08982055 -0.0655507
000380 4c 95 1b 3c df b1 a1 3e a2 68 6f bd 6a 43 0a be
       0.009496044 0.31581017 -0.058449395 -0.13502279
000390 49 d8 00 3d 10 33 0e 3e 4d 63 e4 bd a6 50 2f be
       0.031456266 0.13886666 -0.111517526 -0.17120609
0003a0 2b d1 39 3e 48 b8 91 3e 03 da a6 3c 70 71 36 be
       0.18146197 0.28460908 0.020367628 -0.1781671
0003b0 fd ea 5e bd 92 08 09 3e 6a 5e 85 bd de 4c 4d 3e
       -0.05442332 0.13382176 -0.06512149 0.20048854
0003c0 52 7a 51 3e ac 38 5e 3e 13 c5 6d be 79 67 a7 3d
       0.20456818 0.21701306 -0.23219709 0.08174033
0003d0 e0 cb b1 3c e2 35 dd 3d 3e 05 00 3c 45 46 9a 3d
       0.02170366 0.10801293 0.00781375 0.07532934
0003e0 ac 95 1d bd e3 cf bf bd 90 01 23 3e 8b 83 1b 3e
       -0.038472816 -0.09365823 0.15918565 0.15186898
0003f0 c7 c0 38 3e 61 95 29 bd 5b 24 03 3d 27 62 b9 3d
       0.18042289 -0.041402224 0.032017093 0.09051924

fc3.bias f4 [10]
000000 81 38 08 bf 3e 3c 7d bf 5d 89 b5 3c 82 e3 36 3f
       -0.5321122 -0.9892005 0.022160226 0.714409
000010 5a 1e 8b 3f e3 13 22 3e 6c 8d c4 3e 3a a3 dc be
       1.0868638 0.15827899 0.38389146 -0.43093282
000020 0b eb ac 3e fc d0 00 bf
       0.33773074 -0.50318885
